models/saves/evaluator_prof.pth (torch, 190882 bytes, 11 tensors)

encoder.0.weight f4 [16, 1, 3, 3]
-0.62285656 -0.17956185 0.095682606 -0.43950224 1.0100561 0.118038304 0.10255318 -0.023652794
0.91152966 0.03822575 -0.021725154 -0.025970468 0.5589107 0.42888898 0.013225792 0.094253674
0.009445186 -0.14507101 0.47773227 -0.352414 -0.08306372 -0.35342622 0.07634934 0.42829272
0.12420235 0.57395446 0.027281316 0.036518317 -0.27125925 0.15583907 -0.23217447 -0.24932572
-0.30788475 0.27029026 -0.42549983 0.60626054 -0.28203315 0.19639659 0.316948 -0.047396716
-0.3101056 0.33153975 -0.1431295 -0.7562224 0.7111858 0.22545728 -0.20626454 0.043564413
1.2529233 -0.47749016 -0.17601961 -0.08017255 0.14581873 0.32147482 0.31215775 -0.81882656
0.1718864 0.20052579 -0.049024034 0.012172158 -0.121858716 0.00040640624 0.06299141 0.30257267
-0.090046 0.02741454 -0.48897657 0.43543392 -0.10367606 -1.2703404 0.1806938 -0.052840963
0.3063536 -0.25141186 0.22066201 -0.74053854 -0.028791364 0.42451763 0.13290061 0.16632332
-0.41259497 0.37088245 -0.12427632 -0.4305418 -0.037206102 0.38340437 -0.50848335 0.24589683
0.8208412 -0.626326 0.7306495 0.14587909 0.14525948 0.48470742 0.6461638 -0.0871739
-0.5915057 -0.7705979 0.18396334 0.28239605 -0.1962586 -0.47260743 -0.009926958 -0.30361408
-0.14620386 0.12632118 -0.089799844 -0.79448074 0.51907736 0.1543267 -0.030127741 0.21399252
-0.5951343 -0.021999387 -0.060166035 0.19418442 -0.48761636 0.17891909 0.17461473 0.029493764
0.22211884 -0.42462182 -0.56473833 0.052943982 -0.37449 -0.6514131 -0.0077850143 -0.050670967
0.29859743 -0.17019027 0.20751587 0.72640437 0.048753083 -0.0831834 0.6323569 0.16973743
0.08215527 0.022593208 -0.16078195 -1.1224667 -0.059420515 0.20586619 -0.3454892 0.21966802
00000000: 8773 1fbf 10df 37be 3ef5 c33d 7006 e1be
00000010: 8549 813f 11be f13d 6707 d23d 81c3 c1bc
00000020: 025a 693f 9b92 1c3d f3f8 b1bc 05c0 d4bc
00000030: c614 0f3f 5697 db3e feb0 583c 1208 c13d
00000040: fbbf 1a3c 7f8d 14be 5399 f43e 9c6f b4be
00000050: 501d aabd 48f4 b4be 0b5d 9c3d 2f49 db3e
00000060: cd5d fe3d aeee 123f 117d df3c 3b94 153d
00000070: 7ee2 8abe 4794 1f3e 25bf 6dbe 3e4f 7fbe
00000080: 12a3 9dbe 7c63 8a3e 1ddb d9be e433 1b3f
00000090: a666 90be 301c 493e 0247 a23e 0f23 42bd
000000a0: 29c6 9ebe 94bf a93e 8a90 12be cb97 41bf
000000b0: 4610 363f 46de 663e 0337 53be 9970 323d
000000c0: ca5f a03f 9779 f4be 7c3e 34be 8231 a4bd
000000d0: 8151 153e 5998 a43e 24d3 9f3e 9e9e 51bf
000000e0: fd02 303e a256 4d3e 6dcd 48bd bb6d 473c
000000f0: 1091 f9bd ec12 d539 a401 813d ceea 9a3e
00000100: 0a6a b8bd 7594 e03c 235b fabe 32f1 de3e
00000110: 1d54 d4bd 849a a2bf cc07 393e c46f 58bd
00000120: 61da 9c3e 0eb9 80be 39f5 613e ef93 3dbf
00000130: dedb ebbc 605a d93e 1917 083e a950 2a3e
00000140: a63f d3be 4ee4 bd3e 9584 febd fa6f dcbe
00000150: 6d65 18bd 944d c43e f72b 02bf 61cc 7b3e
00000160: a622 523f e756 20bf d80b 3b3f 5461 153e
00000170: e7be 143e 922b f83e fe6a 253f 3b88 b2bd
00000180: eb6c 17bf e745 45bf e360 3c3e 3796 903e
00000190: 04f8 48be 9af9 f1be aea4 22bc 4e73 9bbe
000001a0: 77b6 15be 575a 013e fbe8 b7bd 1763 4bbf
000001b0: 41e2 043f d207 1e3e 74ce f6bc db20 5b3e
000001c0: b95a 18bf 0f38 b4bc a970 76bd 48d8 463e
000001d0: daa8 f9be 9136 373e 34ce 323e e89c f13c
000001e0: 1f73 633e 0868 d9be b192 10bf cadb 583d
000001f0: 27bd bfbe 02c3 26bf 6f19 ffbb 5c8c 4fbd
00000200: c3e1 983e 5c46 2ebe 0a7f 543e a3f5 393f
00000210: 50b1 473d 0f5c aabd 24e2 213f a6cf 2d3e
00000220: 0641 a83d 6415 b93c 06a4 24be fdac 8fbf
00000230: ed62 73bd 96ce 523e f6e3 b0be a7f0 603e

encoder.0.bias f4 [16]
-0.22259744 -0.6933444 -0.22007576 0.73214006 -0.08232531 -0.13897334 0.46979222 -0.08244382
0.37745142 0.10196637 0.29038396 0.06573076 0.103364974 0.34170663 0.026232827 -0.11999298
00000000: 95f0 63be 057f 31bf 8a5b 61be 886d 3b3f
00000010: 2c9a a8bd 074f 0ebe 9b88 f03e 4ed8 a8bd
00000020: 5041 c13e bfd3 d03d 35ad 943e d99d 863d
00000030: 04b1 d33d 2cf4 ae3e 3ae6 d63c e1be f5bd

encoder.2.weight f4 [32, 16, 3, 3]
0.03958062 -0.05146125 -0.16936782 -0.04992301 0.056919646 -0.026338093 -0.09014107 0.04771478
-0.20249829 -0.439043 -0.06358973 -0.06463304 0.059570488 -0.09101249 0.067663066 0.023184277
-0.11454238 0.020210464 -0.077200316 0.060082525 -0.06530073 -0.18552318 0.0065363953 0.10553531
-0.20692857 0.16579996 0.09192859 -0.08996542 -0.24254969 -0.11770866 -0.11347162 -0.049921826
0.1157623 -0.12786844 0.037530914 0.054216947 -0.20997705 -0.070074916 -0.14259599 -0.03047006
0.07385498 -0.0926115 -0.52662647 -0.080231145 0.048274495 -0.02599741 -0.016732091 -0.15775287
-0.20698611 -0.027376715 -0.29165354 0.10509578 -0.17075315 -0.18675241 0.07676615 0.03836264
0.06183923 -0.15741576 0.0052436143 0.021873761 0.074152954 0.0030006152 0.13422157 0.0049914643
0.033029307 -0.104398474 -0.049688566 -0.16481733 -0.004756992 0.15339969 0.011027668 0.14006144
-0.09245728 -0.01895362 0.019853387 0.151163 -0.057518728 0.030341525 -0.14890836 -0.13879776
-0.04990756 -0.16317974 -0.23141739 -0.20644519 -0.0033643057 -0.115749516 -0.28811952 0.032397926
-0.052021075 -0.019662231 0.06814704 0.060385976 0.06672692 -0.008990782 -0.07123938 0.08445427
-0.12587938 -0.14397568 -0.09285875 0.18789294 -0.053854264 -0.053952068 -0.23428112 -0.023934634
-0.09244635 0.09621432 -0.08321338 -0.15339345 -0.06773271 0.04830674 -0.18265544 -0.14561336
-0.081861414 0.091157265 0.025276683 -0.09877024 -0.091410995 0.0726776 -0.0054999576 -0.0283513
0.09318922 0.07778429 0.084443964 0.060493868 -0.01767583 -0.048575513 -0.091382846 0.10455227
-0.15040287 -0.082912706 -0.08823794 -0.105506495 -0.3263144 -0.00046935727 0.0474479 -0.12400832
-0.16078678 -0.18519013 -0.34871477 0.03150306 0.045040324 0.0035782252 0.11110198 -0.26163566
0.02416063 0.037446097 0.02187267 0.29241437 -0.062116962 0.062976286 0.24877632 0.14615516
-0.056399126 0.07813663 0.19822577 -0.022529589 0.04816098 0.21956468 0.08343593 0.13949722
0.2517065 0.19145313 0.14762521 0.07678287 0.07032377 0.109464906 0.2649003 0.15246
0.13762416 0.31669393 0.022134593 -0.0123906825 0.15644698 -0.06601044 -0.4052997 -0.30917233
0.007468014 -0.62500334 -0.27637625 0.1300421 -0.013996269 0.21347375 0.0631922 -0.082298346
-0.43207988 0.19321278 0.012018056 -0.25563326 -0.051348075 0.035059907 0.20604116 0.113135755
0.25967404 -0.036613088 -0.007202193 -0.07671367 -0.0057841702 0.053037375 0.059142362 -0.2719373
0.07069211 -0.39901197 0.017048463 -0.25575024 -0.51905483 -0.48102033 0.20193453 -0.2113331
0.29147467 -0.19024141 -0.09231456 -0.06938564 0.10076605 -0.0037743358 -0.11582073 0.025643136
-0.0030516565 0.18284191 -0.08767843 -0.021617781 -0.37568197 -0.036005516 -0.37349817 -0.4017534
-0.0948449 -0.048551198 -0.12625651 -0.049349185 0.0022672229 0.054395042 -0.0076542455 -0.3380822
0.1306288 0.0028735723 -0.0030306028 -0.052163485 0.06253189 -0.13622244 -0.06398007 -0.012710463
-0.005280843 -0.19575173 0.13263941 -0.029633034 -0.015694337 -0.034450494 -0.01222697 0.129571
-0.0014193818 -0.1267779 0.2177808 0.09702012 0.18979177 0.07183732 -0.031355277 -0.2106844
00000000: 4a1f 223d 08c9 52bd c26e 2dbe 127c 4cbd
00000010: 9324 693d fcc2 d7bc e29b b8bd 9370 433d
00000020: b65b 4fbe 3eca e0be 553b 82bd 545e 84bd
00000030: 2f00 743d c264 babd ef92 8a3d f4ec bd3c
00000040: 3295 eabd 6a90 a53c 331b 9ebd 1819 763d
00000050: 64bc 85bd caf9 3dbe 422f d63b e622 d83d
00000060: 15e5 53be 77c7 293e 0e45 bc3d ca3f b8bd
00000070: f25e 78be 3d11 f1bd cf63 e8bd d47a 4cbd
00000080: c914 ed3d f2ef 02be 04ba 193d 9712 5e3d
00000090: 3904 57be 7083 8fbd af04 12be 599c f9bc
000000a0: 4841 973d 19ab bdbd fed0 06bf 3a50 a4bd
000000b0: 7abb 453d 85f8 d4bc bd11 89bc f889 21be
000000c0: 2bf4 53be 2245 e0bc 9d53 95be 753c d73d
000000d0: ead9 2ebe 063c 3fbe 9237 9d3d 2522 1d3d
000000e0: 224b 7d3d 9931 21be a0d2 ab3b 9a30 b33c
000000f0: 81dd 973d f8a5 443b 6171 093e 708f a33b
00000100: bd49 073d dece d5bd 3d86 4bbd e0c5 28be
00000110: 8be0 9bbb cf14 1d3e 64ad 343c 446c 0f3e
00000120: 3e5a bdbd 9f44 9bbc 92a3 a23c 79ca 1a3e
00000130: c298 6bbd ca8e f83c 6f7b 18be 0021 0ebe
00000140: df6b 4cbd 9718 27be aef8 6cbe 5e66 53be
00000150: af7b 5cbb 150e edbd 6784 93be b0b3 043d
00000160: 0d14 55bd b012 a1bc ad90 8b3d 4957 773d
00000170: 20a8 883d 134e 13bc f4e5 91bd 5cf6 ac3d
00000180: 86e6 00be 5c6e 13be ba2c bebd 0267 403e
00000190: 4a96 5cbd d8fc 5cbd 64e7 6fbe 9112 c4bc
000001a0: 8354 bdbd 030c c53d c76b aabd 2c13 1dbe
000001b0: 72b7 8abd 4add 453d 070a 3bbe ab1b 15be
000001c0: f5a6 a7bd a9b0 ba3d 0c11 cf3c 0d48 cabd
000001d0: b035 bbbd fed7 943d fd38 b4bb fc40 e8bc
000001e0: fdd9 be3d 5f4d 9f3d f5f0 ac3d 6bc8 773d
000001f0: e7cc 90bc 1ef7 46bd ee26 bbbd 801f d63d
00000200: 3603 1abe 23ce a9bd 18b6 b4bd ca13 d8bd
00000210: ae12 a7be 1114 f6b9 bb58 423d 13f8 fdbd
00000220: 4aa5 24be 7ba2 3dbe be8a b2be 5a09 013d
00000230: 347c 383d a880 6a3b 6f89 e33d 1cf5 85be
00000240: 83ec c53c 1461 193d 502e b33c 56b7 953e
00000250: 5b6e 7ebd b6f9 803d 38bf 7e3e b3a9 153e
00000260: c502 67bd 1906 a03d b2fb 4a3e f98f b8bc
00000270: 7344 453d 90d5 603e 75e0 aa3d 5cd8 0e3e
00000280: addf 803e 4a0c 443e 102b 173e 5640 9d3d
00000290: e905 903d 232f e03d 03a1 873e 791e 1c3e
000002a0: 59ed 0c3e b525 a23e 9b53 b53c 4a02 4bbc
000002b0: a333 203e 7b30 87bd 7183 cfbe d64b 9ebe
000002c0: 3eb6 f43b 3800 20bf 3081 8dbe c229 053e
000002d0: 9b50 65bc dd98 5a3e ea6a 813d 098c a8bd
000002e0: 9339 ddbe 92d9 453e 61e7 443c 5de2 82be
000002f0: 5c52 52bd fa9a 0f3d 74fc 523e b8b3 e73d
00000300: fff3 843e 9bf7 15bd 6000 ecbb 0e1c 9dbd
00000310: 2389 bdbb b83d 593d 433f 723d 5e3b 8bbe
00000320: 06c7 903d 4c4b ccbe 38a9 8b3c b2f1 82be
00000330: c7e0 04bf 4c48 f6be edc7 4e3e b467 58be
00000340: 2b3c 953e a5ce 42be 6b0f bdbd 0f1a 8ebd
00000350: 6e5e ce3d d95a 77bb 6b33 edbd 8e11 d23c
00000360: 4dfe 47bb e93a 3b3e c090 b3bd c617 b1bc
00000370: 6359 c0be 857a 13bd 273b bfbe 9fb2 cdbe
00000380: 0b3e c2bd 9fdd 46bd 6349 01be 5f22 4abd
00000390: b095 143b 56cd 5e3d 77d0 fabb 1c19 adbe
000003a0: 8ec3 053e 8b52 3c3b 149d 46bb 61a9 55bd
000003b0: b810 803d e57d 0bbe fc07 83bd 8c3f 50bc
000003c0: ec0a adbb 2473 48be a0d2 073e fac0 f2bc
000003d0: 6991 80bc f61b 0dbd a153 48bc 43ae 043e
000003e0: 8d0a baba 11d2 01be ee01 5f3e 7cb2 c63d
000003f0: c658 423e 721f 933d 646e 00bd a7bd 57be

encoder.2.bias f4 [32]
-0.093171015 -0.3595959 -0.16696888 -0.14429183 -0.09909659 0.11712582 0.045104105 0.4193601
0.027582351 0.06927129 -0.3320905 -0.056363765 0.030046908 -0.051284596 -0.06422668 0.31199825
0.2562022 0.3270773 0.022809608 -0.26542816 0.0938455 0.07617682 0.35196772 0.0842553
0.26622555 0.041153546 -0.04089848 0.063603096 0.16225046 -0.018615684 0.11250301 0.18652727
00000000: 72d0 bebd f41c b8be e4f9 2abe 3dc1 13be
00000010: 27f3 cabd a9df ef3d 15bf 383d 5eb6 d63e
00000020: 62f4 e13c 1bde 8d3d c407 aabe b1dd 66bd
00000030: ef24 f63c cc0f 52bd 4789 83bd 3cbe 9f3e
00000040: ef2c 833e ad76 a73e 37db ba3c 33e6 87be
00000050: 1232 c03d 9802 9c3d 1d35 b43e 0b8e ac3d
00000060: b74e 883e 9f90 283d 2a85 27bd 5742 823d
00000070: fc24 263e eb7f 98bc fa67 e63d 0101 3f3e

encoder.4.weight f4 [64, 32, 3, 3]
-0.017934838 0.13154791 -0.031728838 0.07270797 0.11069395 0.030950468 -0.04540888 -0.059266195
-0.20798954 0.07263225 -0.03263023 0.13120587 0.06189473 -0.114948526 0.30204096 0.1108418
0.12582979 0.22964041 -0.054615445 0.034654163 0.082315184 -0.06835597 -0.31914818 0.1157117
0.11181921 -0.07893951 0.023795575 -0.06356026 -0.14911963 -0.06618894 0.079384014 0.11547688
-0.0522424 0.031341154 -0.18457304 0.06626392 0.039308045 0.0991899 -0.005492667 0.047836196
-0.07587771 0.20272739 0.111242935 0.26020366 -0.031489808 -0.023761736 0.043133583 0.06273668
-0.0018785074 0.15304536 0.16088906 -0.028357541 -0.014403947 0.3359284 0.012666746 -0.04767099
0.097898446 -0.10735365 0.11615522 0.09475007 -0.014147715 -0.005267919 -0.11888512 0.031549603
0.03746053 -0.1125958 -0.053854655 0.2392696 -0.034239914 0.108015135 0.13476615 -0.14323376
-0.0028644113 0.069255546 0.050417066 0.2323535 0.15919328 0.18048027 -0.07339256 -0.04018323
-0.08217021 0.04238685 0.036124058 0.08086398 0.05963905 -0.28780413 0.03603135 -0.09617322
0.05734115 0.137878 -0.011982215 0.04988223 -0.13124555 -0.108803 0.10044656 0.13904151
-0.084461115 0.02237807 0.24808194 -0.07958729 -0.055298433 0.09484181 0.15628807 -0.06460511
0.017135322 0.071558736 -0.1306825 0.010349062 0.025878858 0.059073642 0.12798332 0.000265803
0.12757218 0.044957004 -0.0061234212 0.041390903 0.117865965 0.10355904 -0.14261338 0.18353374
0.1522972 0.10266118 -0.1032175 0.0756626 0.0021019082 -0.120616406 0.12036059 -0.1292104
-0.029056566 0.022240466 0.047474198 1.0131761e-05 -0.029951872 -0.030045325 0.039120406 -0.086998336
0.00027378497 0.007898249 0.035709042 0.024192702 0.17420241 -0.006687999 0.060108867 -0.107186235
0.07697665 -0.036700584 -0.06770368 0.07575216 0.31777653 -0.054108854 -0.10216905 0.1340728
-0.0036841577 -0.022713883 -0.0066905413 -0.1461876 -0.07212867 0.1289927 0.4057537 0.037856575
-0.1279684 0.48925528 0.16861792 0.15404192 -0.011997378 0.025331356 0.17781082 0.15188363
-0.071374 -0.022410376 0.04592316 0.051270515 -0.029435482 0.06241096 -0.14451519 -0.0007503805
-0.049141604 0.1732874 0.08338828 0.19353203 0.0297344 -0.15061907 0.15695772 0.27541244
-0.2256362 0.8208967 -0.046081692 0.21100755 -0.16102669 -0.09548406 -0.02414795 0.12559062
0.009964847 0.066463076 0.23772798 0.040681027 -0.024795318 0.013907165 0.115320854 0.0076739374
0.040128034 0.1846179 0.14978772 0.0139944265 -0.090435654 -0.11830318 -0.04026304 -0.016706001
-0.09240668 -0.03179769 0.042594478 -0.08325684 -0.18198328 -0.09825405 -0.117000714 0.027414208
-0.049880598 0.10236674 0.09729498 -0.21245989 -0.19441617 0.27170688 0.1172827 0.05836504
0.06077195 -0.03599572 0.17159444 0.05464932 0.088180736 -0.019258121 0.2179438 0.15561692
-0.17306384 0.03123028 -0.006086288 -0.008593535 0.06299464 0.23394123 0.09903728 0.107697
0.027809901 0.12962314 0.11095012 0.14930184 -0.013826973 0.030022237 0.12243261 -0.05686757
-0.09167135 0.046686042 -0.0072247656 0.12655152 0.053605244 0.13913591 -0.074229725 -0.06686383
00000000: 15ec 92bc 7fb4 063e 19f6 01bd ebe7 943d
00000010: 82b3 e23d d68b fd3c a9fe 39bd 1cc1 72bd
00000020: 36fb 54be 38c0 943d 47a7 05bd d55a 063e
00000030: 5485 7d3d 226a ebbd 1da5 9a3e 0701 e33d
00000040: 86d9 003e db26 6b3e 72b4 5fbd 86f1 0d3d
00000050: dd94 a83d 37fe 8bbd 6467 a3be 41fa ec3d
00000060: 7801 e53d 0aab a1bd f0ee c23c e22b 82bd
00000070: d1b2 18be 118e 87bd 1694 a23d 247f ec3d
00000080: 20fc 55bd 955f 003d b700 3dbe 61b5 873d
00000090: 7901 213d 1324 cb3d d5fb b3bb e3ef 433d
000000a0: c665 9bbd c597 4f3e 56d3 e33d 6a39 853e
000000b0: 75fb 00bd f9a7 c2bc d7ac 303d 177c 803d
000000c0: 4038 f6ba ecb7 1c3e 1ac0 243e 134e e8bc
000000d0: 88fe 6bbc cffe ab3e 2f88 4f3c a842 43bd
000000e0: fb7e c83d 3bdc dbbd cae2 ed3d 530c c23d
000000f0: d1cb 67bc 829e acbb 0b7a f3bd 283a 013d
00000100: 3670 193d a098 e6bd b396 5cbd 1703 753e
00000110: 273f 0cbd 0a37 dd3d 2300 0a3e dfab 12be
00000120: d9b8 3bbb dad5 8d3d 2082 4e3d 13ee 6d3e
00000130: 9003 233e d2cf 383e d74e 96bd 2c97 24bd
00000140: db48 a8bd d59d 2d3d d2f6 133d 049c a53d
00000150: 1448 743d 105b 93be 9c95 133d 77f6 c4bd
00000160: 8ede 6a3d e42f 0d3e 0d51 44bc 4f51 4c3d
00000170: 3c65 06be 1bd4 debd edb6 cd3d e660 0e3e
00000180: f3f9 acbd 3752 b73c 3109 7e3e a9fe a2bd
00000190: 9c80 62bd 6c3c c23d fb09 203e af4f 84bd
000001a0: 605f 8c3c 638d 923d a2d1 05be 1d8f 293c
000001b0: e6ff d33c 34f7 713d 0f0e 033e 7a5b 8b39
000001c0: 48a2 023e d624 383d fba6 c8bb 8289 293d
000001d0: b663 f13d c316 d43d 3e09 12be 45f0 3b3e
000001e0: ccf3 1b3e 0640 d23d b263 d3bd fef4 9a3d
000001f0: 2bc0 093b bc05 f7bd 9d7f f63d bb4f 04be
00000200: 0908 eebc a331 b63c 4e74 423d 95fb 2937
00000210: a15d f5bc 9d21 f6bc b83c 203d 2f2c b2bd
00000220: cc8a 8f39 a867 013c a543 123d c62f c63c
00000230: 1e62 323e 0027 dbbb b734 763d 7584 dbbd
00000240: efa5 9d3d 5a53 16bd 3aa8 8abd f323 9b3d
00000250: 9bb3 a23e 3fa1 5dbd 023e d1bd 614a 093e
00000260: e971 71bb 7712 babc 543c dbbb 34b2 15be
00000270: 32b8 93bd aa16 043e f3be cf3e 7f0f 1b3d
00000280: 260a 03be ab7f fa3e 2daa 2c3e 2abd 1d3e
00000290: a790 44bc b483 cf3c 0a14 363e 6287 1b3e
000002a0: 882c 92bd f795 b7bc ec19 3c3d 0801 523d
000002b0: ae22 f1bc a3a2 7f3d cafb 13be 2fb5 44ba
000002c0: b548 49bd 4172 313e 79c7 aa3d 432d 463e
000002d0: 8e95 f33c e33b 1abe 86b9 203e dc02 8d3e
000002e0: 2d0d 67be 4926 523f 28c0 3cbd 5d12 583e
000002f0: 2ee4 24be 268d c3bd ecd1 c5bc d49a 003e
00000300: 9943 233c cb1d 883d f76e 733e 26a1 263d
00000310: 8d1f cbbc e1da 633c 572d ec3d a775 fb3b
00000320: 4b5d 243d 7a0c 3d3e f461 193e e148 653c
00000330: 5436 b9bd f048 f2bd dcea 24bd 06db 88bc
00000340: b73f bdbd 4b3e 02bd 8c77 2e3d 9082 aabd
00000350: d359 3abe 6b39 c9bd 129e efbd c393 e03c
00000360: 994f 4cbd a7a5 d13d 9742 c73d 168f 59be
00000370: 0815 47be 2a1d 8b3e ea31 f03d 2e10 6f3d
00000380: 02ec 783d 4070 13bd 74b6 2f3e f7d7 5f3d
00000390: 1a98 b43d 35c3 9dbc a92c 5f3e 0b5a 1f3e
000003a0: a637 31be a5d6 ff3c 7c6f c7bb e6cb 0cbc
000003b0: 5503 813d 4a8e 6f3e 0fd4 ca3d 3f90 dc3d
000003c0: 97d1 e33c eebb 043e d139 e33d 95e2 183e
000003d0: 878a 62bc 32f1 f53c f3bd fa3d f8ed 68bd
000003e0: 30be bbbd dd39 3f3d babd ecbb b996 013e
000003f0: 2c91 5b3d a579 0e3e c105 98bd e7ef 88bd

encoder.4.bias f4 [64]
0.1526056 -0.09564451 -0.3041304 0.32498908 -0.113042004 -0.06914266 -0.025941614 -0.053925935
-0.11933403 -0.23723243 0.053113155 -0.07467192 -0.057002433 -0.0255841 -0.11077773 0.10914909
-0.09567198 0.028344087 0.23983307 0.14812188 -0.014033754 -0.39191863 0.06689723 0.16148318
-0.16773243 0.05094866 0.17907767 -0.00868795 0.04733286 0.19430459 -0.2693669 0.019136881
-0.08253893 -0.07719695 -0.016063552 -0.20906821 -0.06163543 0.1749796 0.12290712 -0.3206932
-0.07139657 0.245808 0.055562645 0.044967875 -0.18347912 -0.15017429 0.3144131 -0.11282548
0.005982717 0.12626635 0.12768812 -0.08136247 -0.24135877 0.057589352 -0.060571853 -0.06031343
0.012015037 0.08975051 0.12140124 -0.046992444 0.2781243 0.027727151 -0.06825357 0.10275681
00000000: a444 1c3e 45e1 c3bd fbb6 9bbe f864 a63e
00000010: 9182 e7bd ab9a 8dbd 8283 d4bc 71e1 5cbd
00000020: 6665 f4bd 0fed 72be 2e8d 593d 97ed 98bd
00000030: 627b 69bd bf95 d1bc 6fdf e2bd 8f89 df3d
00000040: acef c3bd dc31 e83c cd96 753e 43ad 173e
00000050: d5ed 65bc 8fa9 c8be 6a01 893d d95b 253e
00000060: 0dc2 2bbe 8baf 503d 2360 373e e757 0ebc
00000070: 1ae0 413d c8f7 463e 75ea 89be f3c4 9c3c
00000080: 2c0a a9bd 6f19 9ebd b697 83bc fa15 56be
00000090: 6f75 7cbd da2d 333e bab6 fb3d e631 a4be
000000a0: 5d38 92bd 18b5 7b3e a895 633d 3c30 383d
000000b0: f3e1 3bbe 4ac7 19be c1fa a03e 0c11 e7bd
000000c0: ab0a c43b f74b 013e adc0 023e 5ea1 a6bd
000000d0: c126 77be d0e2 6b3d 311a 78bd 370b 77bd
000000e0: b8da 443c 1ecf b73d 37a1 f83d 267b 40bd
000000f0: 4f66 8e3e 0d24 e33c 87c8 8bbd 2a72 d23d

decoder.0.weight f4 [64, 32, 3, 3]
0.091355324 0.10137362 -0.030940134 -0.15708181 -0.1749549 -0.29496083 -0.09009395 0.0028495828
-0.03649031 0.00086379406 0.1899881 -0.19237536 -0.33396822 -0.11455654 0.08303176 -0.23846933
-0.11642143 0.17669839 0.059017982 -0.013014492 -0.08629575 -0.17109491 -0.05432287 -0.1980463
0.14986731 0.030331735 0.102575906 0.055827726 -0.08635579 0.04778596 0.12896322 -0.13310319
-0.33360562 -0.11967161 -0.015540742 -0.0948357 -0.15554279 0.2409932 -0.22982033 -0.06119115
0.026722396 0.033581097 -0.0046168836 0.0005340495 -0.11157344 0.09919387 0.08467717 -0.04487163
0.12232689 0.103364415 -0.07020381 -0.16295955 -0.054645058 0.23295034 -0.025245829 0.013311429
-0.0065246224 0.050429493 0.049088493 -0.17062125 -0.14594297 -0.0072168 0.029297976 0.016040843
-0.06258355 -0.060209494 0.34485063 0.13666442 -0.17710875 0.016750943 -0.095479816 0.09713709
0.025187483 -0.24041396 0.26895598 0.36788163 0.09309208 0.66761833 0.07038535 0.0452636
-0.031389717 0.09443004 -0.062018666 -0.14984532 -0.063386835 -0.13583797 -0.087723754 -0.09551754
-0.044277932 -0.0739714 -0.043241277 0.0837961 -0.1531254 -0.47514978 -0.16179013 -0.17635821
-0.08163496 -0.15752634 -0.10973351 0.21028818 0.059777506 0.06934358 0.031169752 0.009228341
-0.26265872 0.09549887 0.069177024 0.025469879 0.06560158 0.028578436 -0.107860446 -0.19555652
0.19605242 0.25599128 -0.08192401 0.035639703 0.36796343 0.024259327 -0.08519615 0.17329746
0.15564777 -0.0001927657 -0.1319113 0.029891662 0.17690013 -0.017290235 -0.1309217 -0.08709121
-0.0013222528 0.1498653 0.26006973 -0.0021434953 0.052348413 -0.03786793 -0.033609584 -0.10266863
0.030687854 -0.21211806 -0.05955394 -0.16125137 -0.18825844 0.012621228 -0.13101329 0.1007781
-0.05553209 0.054111585 -0.064176984 -0.020699829 0.24299476 0.013978885 -0.12423945 -0.017799102
-0.055851728 -0.1221899 -0.029609282 0.1445686 -0.14407037 -0.27127808 0.24793398 0.29162
0.0029004326 0.026935771 -0.015156283 0.015377632 -0.17427714 -0.030572904 -0.21288179 -0.023261273
-0.16986778 -0.070588656 -0.110352434 0.16659029 -0.06363104 -0.16656688 -0.047337815 -0.052701782
-0.24139258 -0.06459279 -0.46171117 -0.46130678 0.07242036 0.051196925 -0.17285559 -0.07075093
0.30251718 -0.037548352 -0.13332413 0.11710246 0.13470772 -0.030337825 -0.07128442 -0.04152686
0.08271292 0.33324936 -0.42776522 -0.11255636 -0.12665953 -0.052660093 -0.058904532 -0.11172687
-0.04367194 0.071520604 -0.21856458 0.065772764 -0.052807294 -0.174983 -0.19792485 -0.014356738
-0.16434444 0.096924484 -0.062368326 -0.06236756 -0.027248636 0.0409004 -0.18025735 -0.11146344
-0.110360876 -0.24011372 -0.10751503 0.019884575 -0.03559793 -0.08068188 -0.23174839 -0.08211982
0.13828471 0.057000205 -0.10954208 0.053828575 0.017778613 -0.495506 0.18047878 -0.19688357
-0.0712814 -0.2130412 0.08822787 0.025493372 -0.0059409663 0.053636726 0.104502864 -0.29939306
-0.021038702 0.08267814 0.13568701 -0.02134742 -0.039224267 -0.06489807 0.010711525 0.029866386
-0.11337922 -0.06760518 0.05598204 -0.38242677 0.047674626 -0.0808913 -0.04456449 0.11600364
00000000: 8018 bb3d f99c cf3d 2a76 fdbc 0eda 20be
00000010: 6127 33be 1b05 97be 2d83 b8bd 11c0 3a3b
00000020: dd76 15bd 3d70 623a 3e8c 423e 0cfe 44be
00000030: e2fd aabe 9f9c eabd 8e0c aa3d 4e31 74be
00000040: 5c6e eebd 6cf0 343e d7bc 713d bc3a 55bc
00000050: d4bb b0bd 8133 2fbe a881 5ebd a6cc 4abe
00000060: d176 193e 427a f83c 5113 d23d 9dab 643d
00000070: 4edb b0bd 36bb 433d ef0e 043e 344c 08be
00000080: 5bce aabe 6416 f5bd 999e 7ebc 3839 c2bd
00000090: 9c46 1fbe ecc6 763e 0556 6bbe 92a3 7abd
000000a0: ede8 da3c 558c 093d 3a49 97bb 75ff 0b3a
000000b0: 9e80 e4bd 2826 cb3d 396b ad3d 50cb 37bd
000000c0: 8586 fa3d b9b0 d33d 04c7 8fbd dede 26be
000000d0: 7fd3 5fbd 898a 6e3e 57d0 cebc 2e18 5a3c
000000e0: 80cc d5bb 288f 4e3d 0411 493d 56b7 2ebe
000000f0: 1372 15be e87a ecbb 4f02 f03c 1668 833c
00000100: ce2b 80bd 3b9e 76bd 4390 b03e c2f1 0b3e
00000110: ff5b 35be 4639 893c ec8a c3bd d0ef c63d
00000120: fb55 ce3c 142f 76be 99b4 893e fb5a bc3e
00000130: 0fa7 be3d 09e9 2a3f 3226 903d 5366 393d
00000140: 8192 00bd 8964 c13d 4907 7ebd 0d71 19be
00000150: f5d0 81bd 1c19 0bbe 83a8 b3bd b39e c3bd
00000160: c75c 35bd 517e 97bd c41d 31bd 4a9d ab3d
00000170: e8cc 1cbe d546 f3be 50ac 25be 3f97 34be
00000180: 3b30 a7bd 964e 21be f6bb e0bd c955 573e
00000190: 42d9 743d 0204 8e3d b557 ff3c 7832 173c
000001a0: 347b 86be e994 c33d afac 8d3d 35a6 d03c
000001b0: 1f5a 863d 531d ea3c f0e5 dcbd f83f 48be
000001c0: f7c1 483e 4a11 833e c6c7 a7bd f0fa 113d
000001d0: b465 bc3e 7fbb c63c 527b aebd e474 313e
000001e0: 2162 1f3e 2621 4ab9 c113 07be 5cdf f43c
000001f0: 4f25 353e 40a4 8dbc 5710 06be e05c b2bd
00000200: 714f adba 4a76 193e dc27 853e e279 0cbb
00000210: 4a6b 563d 671b 1bbd 34aa 09bd ee43 d2bd
00000220: 1865 fb3c 7a35 59be d5ee 73bd 141f 25be
00000230: d2c6 40be 44c9 4e3c 5928 06be c064 ce3d
00000240: 9e75 63bd 1ca4 5d3d 396f 83bd b092 a9bc
00000250: 9ed3 783e b107 653c 4171 febd 6ccf 91bc
00000260: c8c4 64bd b33e fabd 2a8f f2bc cb09 143e
00000270: 2f87 13be f6e4 8abe 68e2 7d3e 374f 953e
00000280: 2f15 3e3b 68a8 dc3c 0f52 78bc 77f2 7b3c
00000290: b575 32be 0774 fabc affd 59be 6d8e bebc
000002a0: d2f1 2dbe c990 90bd 7500 e2bd a596 2a3e
000002b0: fe50 82bd 8290 2abe 4ce5 41bd d3dd 57bd
000002c0: 9e2f 77be 3a49 84bd 6865 ecbe 6730 ecbe
000002d0: 2051 943d deb3 513d 0e01 31be dde5 90bd
000002e0: 88e3 9a3e 4dcc 19bd 1f86 08be 6ad3 ef3d
000002f0: d2f0 093e 0887 f8bc 91fd 91bd 1218 2abd
00000300: 6465 a93d a99f aa3e 0b04 dbbe f383 e6bd
00000310: 09b3 01be 1cb2 57bd e145 71bd 0fd1 e4bd
00000320: 59e1 32bd 6579 923d 65cf 5fbe dfb3 863d
00000330: 764c 58bd be2e 33be d0ac 4abe 8638 6bbc
00000340: e949 28be 5880 c63d ee75 7fbd 2075 7fbd
00000350: 8838 dfbc 2e87 273d 6295 38be f246 e4bd
00000360: e204 e2bd 5fe0 75be d730 dcbd fae4 a23c
00000370: 23cf 11bd 8b3c a5bd 734f 6dbe 702e a8bd
00000380: 829a 0d3e 0c79 693d 9957 e0bd 5a7b 5c3d
00000390: 74a4 913c f6b2 fdbe 6ecf 383e d99b 49be
000003a0: fcfb 91bd 7927 5abe d0b0 b43d 7ad7 d03c
000003b0: 70ac c2bb 2fb2 5b3d 9905 d63d 0c4a 99be
000003c0: 5b59 acbc 2853 a93d 89f1 0a3e c9e0 aebc
000003d0: a0a9 20bd 48e9 84bd 647f 2f3c 5aaa f43c
000003e0: 5d33 e8bd 9674 8abd 6c4d 653d 71cd c3be
000003f0: 7846 433d 57aa a5bd 4189 36bd 5193 ed3d

decoder.0.bias f4 [32]
-0.08357604 -0.21205705 -0.13344307 0.37849155 0.11192493 -0.031857543 -0.076666124 0.035183735
0.16541106 -0.06080197 -0.124031484 -0.029411571 0.35301456 -0.11797865 0.15617768 -0.0800657
-0.05276272 -0.21979153 -0.067082465 -0.18291202 -0.07001457 -0.15133542 -0.510903 -0.059735373
-0.059217155 -0.10143713 0.088947594 -0.22202311 0.18065692 -0.21438122 -0.3035276 -0.10042089
00000000: ea29 abbd 7c25 59be 4da5 08be a5c9 c13e
00000010: e638 e53d 0e7d 02bd 2103 9dbd d21c 103d
00000020: 8461 293e 7d0b 79bd 3804 febd 89f0 f0bc
00000030: 53be b43e ca9e f1bd 0bed 1f3e 7cf9 a3bd
00000040: b91d 58bd 0811 61be 8862 89bd 4a4d 3bbe
00000050: cd63 8fbd acf7 1abe 8aca 02bf 14ad 74bd
00000060: b08d 72bd 45be cfbd 282a b63d 075a 63be
00000070: 21fe 383e c086 5bbe f867 9bbe 78a9 cdbd

decoder.2.weight f4 [32, 16, 3, 3]
0.038696863 0.061006643 -0.11795745 0.04938635 -0.0010124336 0.03730392 0.043636188 0.007962221
-0.023272336 -0.068503626 -0.23093942 -0.053761728 -0.011834071 -0.006668334 -0.0032002206 0.00012368942
0.027378213 0.0080323825 0.03460022 0.022162523 0.2280594 -0.23927368 0.08696139 0.2691944
0.1969645 0.47871703 0.41014314 0.10151598 0.28318846 0.29467595 0.2592267 -0.061582647
0.20980713 0.1812168 0.280375 0.42260116 0.104345255 0.04703993 -0.07566187 -0.1577425
0.2657335 -0.13998136 -0.03240464 0.2412405 -0.024251556 0.10313968 0.16672894 0.3399812
0.096939005 0.013668695 -0.003956377 0.23136154 -0.17316571 -0.14496526 -0.14218219 0.016944204
-0.11229494 -0.11277095 0.0031092467 0.13574976 -0.04044212 -0.26048535 -0.3183525 0.057659507
-0.012277287 -0.17541717 -0.073915206 0.050511412 -0.033813804 -0.007601488 -0.12585668 0.31596297
0.12450818 0.040527366 0.055235993 -0.062311236 0.26199424 -0.05789544 -0.028012464 0.024012785
-0.014790856 -0.11272753 0.07942602 -0.0572127 -0.19345519 0.15926963 0.09693672 0.082159154
0.39022797 0.07847437 0.10369636 -0.0994786 -0.12669058 -0.20660323 0.08794138 -0.2513203
0.49571195 0.13887201 0.19509296 0.21812162 -0.02139668 -0.2404064 0.13889433 0.063596055
-0.26921692 -0.21306409 -0.05047714 -0.26211458 0.02886847 -0.017488198 0.19803347 0.09382444
0.046092965 0.10057674 -0.1452777 -0.15225667 -0.03144426 0.24149159 0.15974042 0.09620053
-0.11077436 -0.3313983 -0.007824802 0.28989077 0.8699102 0.46626693 -0.013143262 0.39161348
0.066809885 -0.023855444 0.16290943 -0.42326942 -0.13475429 -0.19474913 0.110558346 -0.06979672
-0.078671485 -0.13061033 0.18719068 -0.11832766 -0.0633399 -0.113788255 -0.025133673 -0.067401394
-0.32706827 0.16478276 -0.22509174 -0.011357576 0.04868488 0.100833796 -0.084458515 -0.11579136
0.0020107888 0.07477243 -0.01585671 0.038876142 0.018175615 0.40709102 -0.0031398274 0.033744358
-0.039891623 -0.023326326 0.10801225 0.021576766 0.0140127605 0.21618673 -0.16605495 0.1492334
-0.27042016 0.15304895 -0.07214696 0.045540106 -0.10783195 0.11760803 -0.0026163894 0.26272216
0.22387616 -0.04501095 0.20671304 -0.30633935 0.020129042 -0.038873486 0.2055713 0.03289381
0.06590127 -0.22884041 -0.32426476 -0.19101657 -0.057808146 0.0519619 0.25090197 0.041628756
-0.19820926 -0.84850436 0.20677072 -0.2821368 0.018304348 -0.017108392 -0.054483477 0.07095799
0.029709302 -0.06610573 -0.019577645 0.20400393 0.09041602 0.13752115 -0.017027518 -0.06750709
0.030306209 0.09758563 0.022155942 0.09722811 -0.100194745 -0.0033356093 -0.051072866 -0.06619802
0.32142362 -0.06825912 0.35631 0.16865067 0.1866257 0.08988577 0.098989174 0.17123947
0.17756371 0.082950264 0.002257526 0.3197003 -0.16069116 0.46054012 -0.102368504 0.009967924
0.10146582 -0.047134906 -0.06782312 0.03200489 -0.0075613046 -0.0023880878 0.20425223 -0.028818596
0.2614305 -0.21148257 -0.012408505 -0.082166255 0.00059705303 -0.0421123 0.17368422 0.09114842
0.16800931 0.2679506 -0.09011805 0.24771273 0.46522203 0.22924305 -0.122256 -0.21190067
00000000: 9a80 1e3d 1ae2 793d ad93 f1bd 5749 4a3d
00000010: a2b3 84ba ffcb 183d dcbb 323d fa73 023c
00000020: a0a5 bebc a14b 8cbd 627b 6cbe 4235 5cbd
00000030: b1e3 41bc 0a82 dabb cbba 51bb a0b2 0139
00000040: 4648 e03c 419a 033c f6b8 0d3d 2e8e b53c
00000050: 6788 693e 2904 75be d018 b23d d9d3 893e
00000060: 10b1 493e 661a f53e 48fe d13e 9ce7 cf3d
00000070: 14fe 903e c4df 963e 5db9 843e 163e 7cbd
00000080: aed7 563e e690 393e 508d 8f3e 2e5f d83e
00000090: f7b2 d53d f1ac 403d 9cf4 9abd 4087 21be
000000a0: 390e 883e 4657 0fbe baba 04bd c007 773e
000000b0: 33ab c6bc e63a d33d feba 2a3e 0412 ae3e
000000c0: f587 c63d aaf2 5f3c 7fa4 81bb 0aea 6c3e
000000d0: 5a52 31be c671 14be 3598 11be 92ce 8a3c
000000e0: e4fa e5bd 75f4 e6bd 81c4 4b3b fc01 0b3e
000000f0: a3a6 25bd 565e 85be 19ff a2be 602c 6c3d
00000100: ad26 49bc 8fa0 33be db60 97bd 0ee5 4e3d
00000110: 5880 0abd e715 f9bb 93e0 00be e6c5 a13e
00000120: 25fe fe3d 0600 263d 233f 623d 113a 7fbd
00000130: 1c24 863e c523 6dbd 657a e5bc 76b6 c43c
00000140: 5955 72bc b1dd e6bd 1caa a23d dd57 6abd
00000150: 1e19 46be 9417 233e c286 c63d 0f43 a83d
00000160: f6cb c73e 2cb7 a03d c25e d43d 70bb cbbd
00000170: 2dbb 01be cc8f 53be 9c1a b43d 0ead 80be
00000180: f5cd fd3e 7734 0e3e 73c6 473e 465b 5f3e
00000190: 1748 afbc 182d 76be 513a 0e3e a63e 823d
000001a0: cdd6 89be 792d 5abe 1ec1 4ebd e233 86be
000001b0: 927d ec3c 6943 8fbc 49c9 4a3e 0727 c03d
000001c0: facb 3c3d 2efb cd3d adc3 14be 2ce9 1bbe
000001d0: b2cb 00bd 9249 773e fe92 233e c904 c53d
000001e0: abdd e2bd 0aad a9be 9933 00bc 906c 943e
000001f0: 6fb2 5e3f 8aba ee3e d656 57bc 9081 c83e
00000200: 9fd3 883d 7e6c c3bc bbd1 263e c5b6 d8be
00000210: 07fd 09be 516c 47be 6a6c e23d 95f1 8ebd
00000220: 841e a1bd b7be 05be eaae 3f3e c655 f2bd
00000230: 59b8 81bd d109 e9bd 22e5 cdbc be09 8abd
00000240: 7e75 a7be d0bc 283e 737e 66be 2015 3abc
00000250: cc69 473d f381 ce3d 96f8 acbd 0524 edbd
00000260: 70c7 033b 4a22 993d eee5 81bc 973c 1f3d
00000270: 07e5 943c 3c6e d03e 90c5 4dbb 8637 0a3d
00000280: 6665 23bd da16 bfbc 8735 dd3d c2c1 b03c
00000290: c795 653c 0e60 5d3e 4f0a 2abe a4d0 183e
000002a0: 8374 8abe ddb8 1c3e c9c1 93bd 4388 3a3d
000002b0: ffd6 dcbd 7bdc f03d bb77 2bbb 8583 863e
000002c0: cb3f 653e 675d 38bd 95ac 533e 83d8 9cbe
000002d0: a9e5 a43c ce39 1fbd 4881 523e a9bb 063d
000002e0: 3ff7 863d 2455 6abe 0806 a6be d999 43be
000002f0: 3cc8 6cbd 00d6 543d 3976 803e ea82 2a3d
00000300: 5ef7 4abe 9537 59bf b4bb 533e 3c74 90be
00000310: 00f3 953c e626 8cbc 112a 5fbd 6c52 913d
00000320: ec60 f33c 7162 87bd 4c61 a0bc 68e6 503e
00000330: 092c b93d 58d2 0c3e 4b7d 8bbc 2841 8abd
00000340: ba44 f83c fada c73d 6180 b53c 881f c73d
00000350: e732 cdbd 3d9a 5abb c831 51bd d492 87bd
00000360: a391 a43e 70cb 8bbd 446e b63e c3b2 2c3e
00000370: cf1a 3f3e 0816 b83d d6ba ca3d 6659 2f3e
00000380: 43d3 353e d4e1 a93d 00f3 133b c2af a33e
00000390: 398c 24be eacb eb3e 94a6 d1bd 8150 233c
000003a0: 50cd cf3d 8810 41bd d9e6 8abd 8f17 033d
000003b0: d2c4 f7bb 7781 1cbb 7f27 513e fa14 ecbc
000003c0: 38da 853e e38e 58be 0b4d 4bbc c846 a8bd
000003d0: 8d83 1c3a f27d 2cbd 47da 313e 06ac ba3d
000003e0: a20a 2c3e d230 893e d08f b8bd 68a8 7d3e
000003f0: 9531 ee3e b1be 6a3e 5b61 fabd 7dfc 58be

decoder.2.bias f4 [16]
-0.14037949 -0.20678374 0.024199089 0.11524644 -0.30623588 -0.34644744 -0.3148261 -0.019839035
-0.21649098 -0.3496301 0.032762628 -0.22926764 -0.20159744 -0.33026126 -0.29153666 -0.093077786
00000000: a4bf 0fbe 1ebf 53be 2b3d c63c 5306 ec3d
00000010: f3ca 9cbe 8f61 b1be e330 a1be 7985 a2bc
00000020: d0af 5dbe b702 b3be 1b32 063d 23c5 6abe
00000030: 8f6f 4ebe 0118 a9be 4b44 95be 919f bebd

decoder.4.weight f4 [16, 1, 3, 3]
0.21087308 0.30129868 0.33304176 0.57742685 0.046997853 -0.39766845 -0.38782096 -1.0266566
0.034411833 -0.20689201 -0.2506189 -0.0010977366 -0.8355537 -0.20414996 -0.10929743 -0.08177741
-1.2688576 -0.19265568 0.105598785 -0.084182344 -0.33381537 0.05223726 -0.20440869 -0.5710302
-0.069177605 -0.20887004 -0.14502485 -0.10043421 -0.24417146 -0.054713715 -0.14863339 -0.5506369
-0.19739816 -0.007844156 -0.10870433 -0.14880663 0.0074600535 -0.040964007 -0.16854855 -0.0005642138
-0.15794174 -1.4168121 0.0027963738 0.08886441 -0.039414745 -0.010374991 -0.015042566 -0.116528966
0.07954974 0.24339905 -0.12296026 0.10526613 0.2859713 -0.017088732 -0.1950384 -0.2519917
-0.06490582 -0.14719893 -0.057104863 0.06837986 0.060993884 0.28065893 0.18299179 -0.13879295
-0.3463419 -0.15257584 -0.8451517 0.12758033 -0.5232624 -0.9656721 -0.76396567 -0.085174866
0.554317 0.78395224 0.11854735 1.5660619 0.3018567 -0.30350158 0.8146977 0.22745521
-0.36545193 0.070160344 0.07575586 -0.016919844 0.041065026 -0.5377189 0.009049976 -0.04142124
-1.3558191 0.026250282 -0.09595384 0.042761367 0.17478925 -0.25957534 -0.17703906 0.26167527
-0.2113312 -0.26619917 0.08214094 4.5052406e-05 0.1277705 0.1549555 0.050473444 0.336664
0.2923401 0.030270703 0.17650892 0.16114438 -0.07185011 -0.3676849 -0.10319826 -0.0010706475
-0.10936038 0.14126223 0.22154571 0.4641083 0.37688002 -0.02361789 0.1510391 0.20097071
0.050432455 0.095498994 -0.23258074 0.04332284 -0.15124997 -1.9626553 0.056151457 0.2359206
0.2027626 0.14996389 0.552842 0.46856946 0.10795382 0.32456782 0.28429183 -0.05315901
0.05599699 0.22223747 0.15262792 0.57367384 0.9881827 -0.4079392 -0.18602906 0.28491598
00000000: 1def 573e d243 9a3e 7384 aa3e 3fd2 133f
00000010: d280 403d 339b cbbe 7890 c6be 7c69 83bf
00000020: 6cf3 0c3d 80db 53be 1f51 80be eee1 8fba
00000030: d9e6 55bf b00c 51be 55d7 dfbd ea7a a7bd
00000040: ed69 a2bf 8847 45be 2d44 d83d cb67 acbd
00000050: d9e9 aabe bdf6 553d 8350 51be 092f 12bf
00000060: fdac 8dbd 07e2 55be 6581 14be 73b0 cdbd
00000070: 1508 7abe 7d1b 60bd 5a33 18be 8af6 0cbf
00000080: be22 4abe c684 00bc 60a0 debd c460 18be
00000090: 7773 f43b e0c9 27bd fe97 2cbe bfe7 13ba
000000a0: 7bbb 21be 195a b5bf 5e43 373b 8bfe b53d
000000b0: 5b71 21bd defb 29bc 1875 76bc bda6 eebd
000000c0: f9ea a23d 9a3d 793e 97d2 fbbd c595 d73d
000000d0: d56a 923e abfd 8bbc 25b8 47be 0e05 81be
000000e0: 58ed 84bd 51bb 16be cae6 69bd bd0a 8c3d
000000f0: b9d4 793d 87b2 8f3e 3362 3b3e bd1f 0ebe
00000100: ba53 b1be d73c 1cbe dd5b 58bf 6ba4 023e
00000110: 86f4 05bf 4936 77bf 4193 43bf 2970 aebd
00000120: b8e7 0d3f 18b1 483f f4c8 f23d b774 c83f
00000130: f68c 9a3e 8f64 9bbe 0790 503f 05ea 683e
00000140: 841c bbbe 3ab0 8f3d e325 9b3d 7c9b 8abc
00000150: cd33 283d f2a7 09bf 5a46 143c 51a9 29bd
00000160: 7b8b adbf d50a d73c 7283 c4bd 8b26 2f3d
00000170: f4fb 323e 0fe7 84be ba49 35be 4dfa 853e
00000180: 3567 58be 424b 88be 8239 a83d a7f6 3c38
00000190: 45d6 023e a8ac 1e3e 3ebd 4e3d 395f ac3e
000001a0: 9aad 953e 44fa f73c c1be 343e 0803 253e
000001b0: 2726 93bd 3241 bcbe 9c59 d3bd f854 8cba
000001c0: 56f8 dfbd 0ca7 103e e1dc 623e 9a9f ed3e
000001d0: 6bf6 c03e 4e7a c1bc fea9 1a3e 44cb 4d3e
000001e0: 4392 4e3d fa94 c33d a529 6ebe 4a73 313d
000001f0: 46e1 1abe 4a38 fbbf 12ff 653d 2b95 713e
00000200: 00a1 4f3e 2290 193e 0e87 0d3f 56e8 ef3e
00000210: e416 dd3d c12d a63e b38e 913e 43bd 59bd
00000220: 1a5d 653d 3892 633e 7e4a 1c3e 4adc 123f
00000230: 8bf9 7c3f 68dd d0be 677e 3ebe 82e0 913e
