models/saves/evaluator.pth (torch, 190802 bytes, 11 tensors)

encoder.0.weight f4 [16, 1, 3, 3]
00000000: a620 43bb 72ab 5abe e9d9 c3be c6af 00bf
00000010: 8383 dfbe d3de af3d 1620 8dbe 6562 dd3d
00000020: d4f3 83bf 30e7 cc3e 7c22 353f 865a f6be
00000030: 57ec 3e3e 68df 01bf 2f34 9f3e 1b9b 0b3d
00000040: 898f 48bf 95e6 6cbe 424a f3be 1dfb d53d
00000050: 30fb 863e 906e dbbe db0c 59bd 6bb5 fc3e
00000060: 9c8e ff3e 4ab6 0cbe 1762 d33e fc27 6abf
00000070: b985 a43e c1e7 133f ddc3 3abe c943 6bbf
00000080: 300b 5f3f b273 2ebf 1414 593f 5be4 2a3f
00000090: eef8 d0bc aa63 48bf 29e7 c83e 2f8f af3e
000000a0: 909e 06be 429a 93bd f13f d5be ff16 0bbe
000000b0: bfb7 45be c34f 213f 3679 2a3f 50e6 40be
000000c0: 5d3b 3f3d e203 7abf 02bc 4cbf afc7 4abe
000000d0: 3161 143f 9f2e abbd c6b0 7ebd 9120 38bb
000000e0: 90d1 87be a6f0 bd3e 053b 37be 9893 593f
000000f0: c69a 2fbd 4f4f ffbe 0e22 b63e a266 b93d
00000100: 9772 11be 97dc 49bf 284d 63be 7822 87be
00000110: 7330 2a3f 1003 293e 39bd 2e3f a1ea 5dbe
00000120: 82fa 05bd 1e52 7d3e 0c50 8c3c 6af2 aa3f
00000130: ea0f b3be 67e7 fabe 5029 6cbe d8f7 1cbf
00000140: 9533 283e 359f 4c3f ff3f c1be 3171 87be
00000150: 9a05 92bd 0ad4 a93e 027e 4bbe 8d26 31bf
00000160: 6812 073f 6bf0 86be 4598 2ebe 86c5 ce3e
00000170: 7545 b93e ce15 9abd 0b8a 1fbf b7c9 323e
00000180: 67aa 473f 80d6 6f3e bf76 8f3d 8987 2d3e
00000190: 368a 81bf 2866 5d3f b7e0 cebc d579 1ebe
000001a0: b7ad c93d e447 033f d440 1fbf c4ef 093f
000001b0: e0e2 2bbf 65d7 663e 1c8c 8b3e 45b1 943e
000001c0: 354d 31be 0dbf 1b3f 279e 44bf 29be 4abe
000001d0: 4e9a 353e ecc0 3abe 9d31 6b3e 218d ccbe
000001e0: 091b 87bf a433 e33e 2d68 f6bd ee0b 04bf
000001f0: ca18 b23e a76d 583f c2f1 033c 0c3b 193e
00000200: 8ace 3fbe fa43 c0be 376c c6be 5321 4ebf
00000210: de37 543f a7b1 adbe b93f 173f e63b 3cbe
00000220: 9303 473f cfcc c4be a46e fa3e 63fb 2abf
00000230: e608 6c3e 8d2f b13d 24d8 c1be 8a7d 94be
-0.0029774099 -0.21354464 -0.3825219 -0.5026821 -0.43655023 0.08587422 -0.27563542 0.10809783
-1.0308785 0.40020132 0.70755744 -0.4811594 0.18644844 -0.50731516 0.310945 0.034083467
-0.7834402 -0.23134835 -0.47517592 0.10448287 0.26363516 -0.4285779 -0.052990776 0.4935716
0.4991349 -0.13741413 0.41285774 -0.9146726 0.32133272 0.57775503 -0.18238778 -0.91900307
0.87126446 -0.6814529 0.8479626 0.6675469 -0.025509324 -0.78277075 0.3923886 0.34288928
-0.13146424 -0.07207157 -0.41650346 -0.13582991 -0.19308375 0.6301233 0.66591203 -0.18837857
0.046687473 -0.97662175 -0.7997438 -0.19802736 0.579608 -0.08358502 -0.062180303 -0.0028095583
-0.2652707 0.37097663 -0.17893608 0.84990835 -0.042872213 -0.49865195 0.35572857 0.09052779
-0.14203869 -0.7885222 -0.22197402 -0.26393485 0.6648018 0.16505075 0.6825748 -0.21671535
-0.032709606 0.24738356 0.017128013 1.3355229 -0.3497308 -0.4900467 -0.23062634 -0.6131568
0.16425927 0.7993043 -0.37744138 -0.26453546 -0.07129975 0.33169585 -0.19872287 -0.6919945
0.5276246 -0.263553 -0.17050274 0.40385073 0.36185804 -0.0752369 -0.6232001 0.1745976
0.7799439 0.23421669 0.07005071 0.16946234 -1.0120304 0.86484003 -0.025253637 -0.15476163
0.098475866 0.5128157 -0.62208295 0.5388148 -0.6714306 0.22543104 0.27255332 0.29041496
-0.17314608 0.60838395 -0.7680382 -0.19799103 0.17734644 -0.18237656 0.22968145 -0.39951423
-1.0555125 0.44375336 -0.12031589 -0.51580703 0.34784538 0.84542316 0.008053245 0.14963931
-0.18731132 -0.37551862 -0.38754436 -0.805196 0.82897747 -0.339246 0.5908161 -0.18382224
0.7773983 -0.38437507 0.48912537 -0.66789836 0.2305027 0.08651648 -0.37860215 -0.2900203

encoder.0.bias f4 [16]
00000000: 9da6 8d3e fdf8 7a3e 49eb c6be 84fa 66be
00000010: 5a2b dc3e 932d b23e 6f04 13be 8ec6 003d
00000020: 8eb6 44bd 1ce4 29bd fc17 53be bdbe 75bd
00000030: 8433 723e 7f5a 0e3e 74fa de3e ff95 29bd
0.27666178 0.24509044 -0.38851383 -0.22556502 0.43001825 0.34800395 -0.1435716 0.031439357
-0.04802566 -0.041477308 -0.20614618 -0.059996355 0.23652464 0.13901709 0.43550456 -0.041402813

encoder.2.weight f4 [32, 16, 3, 3]
00000000: 5b31 c23d b4b9 87be e02f 99be e910 1cbe
00000010: fc5c 52be c88d 5cbe d4c2 a3be 7862 0cbe
00000020: 87d0 b0bd b46f 313d bac7 9abe f8f1 aebe
00000030: 5f2f afbe 9aac 25bd 67c0 55be 4484 0ebd
00000040: 549a a0be 310f a4be cbdf 2a3c b49d 4c3d
00000050: 84e9 013e fbf7 4f3d dadc dabd 0e85 303e
00000060: 3ed8 7abc 1f54 a63c 69db a6bd 06c6 f8bd
00000070: f580 113d 7b66 27bd d0a5 583e 3481 66bd
00000080: 128c fcbd 936f 5f3b 2809 4fbd 22de 693d
00000090: dd8a 45be 52a3 21be 4e2a 03bd 8d2d 74bd
000000a0: 2179 91bd d73a f0bd 07d2 a9be 6feb 9abd
000000b0: 6473 a4be 3796 0b3c 9d79 adbe 3704 603e
000000c0: 2a75 20bd cd58 dbbe 827d f2bc 99c6 80be
000000d0: 03e9 39be ee88 91bc a177 83be b26c 0b3d
000000e0: 1d76 5abc 9247 e23a b14c ae3d 158c b33d
000000f0: 2e2f cb3b deff 493d 58c3 523d 6155 e73b
00000100: 7afa 9b3e 8ab3 c43d 6576 4d3d 3510 1ebe
00000110: de5c 4bbe f7b0 67bd f087 78bd 6933 3c3d
00000120: 3632 953d 6fb5 393c ae6e 62ba 6c2a 9fbc
00000130: a452 94bb 4dd4 b6bd 9237 8cbd a7ad df3d
00000140: 4373 743c 756e 0e3d 0517 e5b9 c271 e83b
00000150: c91a 813d 3b8b fd3d 6227 333d d2b4 29bd
00000160: 999b 253e 9fb3 8ebd 66d6 81bd d128 323d
00000170: a37e 64be df8a 1e3e 5ca7 5d3d d11c 913c
00000180: cc5c 073e 816c 483e 0c83 373d 6748 0f3e
00000190: f637 66bc 21fd 89bd ba85 10bd 8e14 b33d
000001a0: ca63 8ebd 2ff1 d33d 0acb 0dbd 57b9 5f3e
000001b0: 2c82 b3bc 81bc 19be 5707 9ebe 9927 afbd
000001c0: faf0 dbbe c787 7abe ce21 d6bd 57cd 26bf
000001d0: 7dd2 e6be a7f1 643e 1e00 3d3e 35a2 f4bd
000001e0: 08a3 d93d c32a a8be f609 19be f5d6 a73e
000001f0: abe3 d3bd 667b 23be fae0 22be ad5f a3be
00000200: 80c6 9cbe 97f4 0cbe df81 dbbd 4b98 acbe
00000210: ae3c 40be 8d30 f2bd 1df6 87be 1bf4 a2bd
00000220: 9ec0 1bbd b22f 033e 8ee6 893d 949c bf3d
00000230: 2bba 99bc 479c dc3d 9874 afbe aafe e73a
00000240: 5448 663a 736d 94bc 951a ccbd 0b6c a4bb
00000250: a12f 45be 6404 16be d824 f13c 0edf 8e3d
00000260: 6ac4 4f3d 7ddc 72be b474 5e3e f3ac 1a3d
00000270: 8f9d 6d3c c859 8c3d 0137 5fbe ef4a 163e
00000280: 3792 16be ca37 8a3e 1968 d9bb e078 3e3e
00000290: dac9 263e a6bb 31be ecf0 10be 66c6 3d3e
000002a0: e499 e3bd 7988 c63b b67b 62bd 5e0f 44bd
000002b0: 3d00 943d 45b9 063e acf8 01bd ec41 65bd
000002c0: d0dc b43d e983 c83d 2c8c 1f3e cc9b 19bd
000002d0: 8085 83be 3d35 053e e233 9f3d b5fd e1bc
000002e0: 3aea 72bd 5eda 47bb 0563 3cbe 4365 0bbe
000002f0: 8a3d fabd 4e45 d83c de79 453d 0c8a 04be
00000300: d70d b2bd 5c3c 96bd 7b7e 08be f15f 733d
00000310: 5e2c 113e d856 62bb 4c26 693d 53cf 663e
00000320: f627 ab3d 1719 423e 238d 483e 66d7 093e
00000330: 6406 0d3e 254a 573d 9903 55be f231 65bd
00000340: 434c 403e 5cf6 30bd e9f2 1bbe d198 a23d
00000350: 1466 a3be 980e 4bbd 95f1 c13d 5649 043e
00000360: 4bba 0b3e f1ba c13b 2722 7abd 1f38 cc3b
00000370: 447e 5cbe 98a6 1bbc 81b4 3a3d 420f 87bd
00000380: 3961 813b a34c cfbd c37d 43be ee42 99bd
00000390: fb62 9b3d c0dc b73d 62e1 1b3c 8fde 023e
000003a0: 9089 6ebd f9cc b23b f615 ce3c afa0 993d
000003b0: d2d2 0ebd 8b54 4fbd 850a f93d 000d 033e
000003c0: 49d2 503d c5a4 a3bd 2176 223e 4e87 04bd
000003d0: 0e2d 363c 7ef0 293e ee35 98bd 412a edbc
000003e0: 8ed6 6c3d e0bb 463d 3909 a13e c814 e93c
000003f0: 0a6b e2ba 6b7f b33b f4de 91bd 68b1 943d
0.0948207 -0.26508868 -0.29919338 -0.15240826 -0.20543283 -0.2153846 -0.3198458 -0.13709438
-0.086335234 0.04331942 -0.30230504 -0.34168983 -0.3421583 -0.04044781 -0.20874177 -0.034794107
-0.31367743 -0.3204284 0.010429333 0.049955085 0.12686735 0.050773602 -0.10686655 0.17238256
-0.015310345 0.020303784 -0.08147318 -0.12147145 0.035523374 -0.040869217 0.21157002 -0.05627556
-0.12331404 0.0034093603 -0.05054584 0.057096608 -0.19291253 -0.15784958 -0.032022767 -0.059613753
-0.07103182 -0.11729973 -0.3316805 -0.07564437 -0.32119286 0.008519701 -0.33881846 0.21876608
-0.039174236 -0.42841187 -0.029600862 -0.25151518 -0.18155293 -0.017765488 -0.25677207 0.034039207
-0.013333824 0.0017263761 0.085107215 0.08766953 0.0062006926 0.04931628 0.051455826 0.0070597385
0.30464536 0.09604557 0.050161738 -0.1543587 -0.19859645 -0.05656525 -0.060676515 0.045947466
0.072849676 0.011334761 -0.00086377084 -0.019429408 -0.004526453 -0.08927212 -0.06846537 0.109217934
0.014920059 0.03477331 -0.00043695435 0.007093639 0.06303937 0.12380072 0.04373873 -0.04143221
0.16172637 -0.06967854 -0.063397214 0.043495957 -0.22313933 0.15482663 0.054114684 0.017713936
0.13218993 0.19572641 0.04480271 0.13992463 -0.014051428 -0.06737734 -0.03528378 0.08744155
-0.06952627 0.103487365 -0.03461746 0.21848045 -0.021912657 -0.15013315 -0.30864975 -0.085524745
-0.42957288 -0.24465857 -0.104556665 -0.65157074 -0.45082465 0.22357808 0.18457076 -0.11945001
0.10626799 -0.32845125 -0.14945206 0.32781187 -0.103461586 -0.15965042 -0.15906134 -0.31908932
-0.30620193 -0.13765179 -0.1071813 -0.3370994 -0.18773147 -0.118256666 -0.26554957 -0.07956716
-0.03802549 0.12811163 0.06733428 0.09356037 -0.01876553 0.10771995 -0.3426864 0.0017699797
0.00087845814 -0.018118596 -0.099660076 -0.0050177625 -0.1925645 -0.14650112 0.029436514 0.06976138
0.050724424 -0.23716922 0.21724206 0.037762593 0.014502897 0.06853062 -0.21798326 0.14677022
-0.14704214 0.2699569 -0.006634724 0.18600798 0.16287938 -0.17356738 -0.14154404 0.18532714
-0.11113337 0.0060587493 -0.05529376 -0.047866218 0.07226608 0.13156612 -0.031731293 -0.05597107
0.08831179 0.09790785 0.15580815 -0.037502095 -0.2568779 0.1300859 0.07773568 -0.027586797
-0.059305407 -0.0030495147 -0.18397148 -0.13612847 -0.12218769 0.026400235 0.048211925 -0.12943286
-0.08694046 -0.073357314 -0.13329498 0.05941767 0.14177081 -0.0034536626 0.05692129 0.22540025
0.08357231 0.18954884 0.1958509 0.13461074 0.13771969 0.052560944 -0.20802154 -0.055955835
0.18779092 -0.043203697 -0.15229382 0.07939304 -0.31913817 -0.049574465 0.09469906 0.129186
0.13645284 0.0059121777 -0.061067726 0.006232276 -0.21532542 -0.009500168 0.0455823 -0.06594707
0.0039483574 -0.10122039 -0.19090943 -0.07483469 0.075872384 0.089776516 0.009514185 0.12780212
-0.05823666 0.0054565636 0.025156956 0.07501351 -0.034869023 -0.050617736 0.121602096 0.12797928
0.050981794 -0.07990412 0.15865375 -0.0323556 0.01111914 0.16595647 -0.07432161 -0.028950812
0.057821803 0.048519015 0.3145235 0.028452292 -0.0017274332 0.005477836 -0.07122603 0.072604

encoder.2.bias f4 [32]
00000000: aaa4 a2bd 39c4 0ebc 94e0 843e 7341 8ebd
00000010: 9b18 b23d f5cc e23e e8a0 b0bd 8660 67bd
00000020: 30ce d9bd 2dfb 153d 0835 06be 4de9 5b3e
00000030: c583 89bd c4f8 09be b0af a0bd 62aa f43d
00000040: fa1f a9bd 07a6 78bd 5dcf d3bd e111 e2bd
00000050: b6fa 95bd 2f51 86bd 87ca 7dbd ff58 08be
00000060: 9202 3e3e 603e 0b3d 5116 85bd 4669 133e
00000070: f390 95bd b668 5fbc 8b87 60bd 1719 23be
-0.079415634 -0.008713775 0.2595259 -0.06946077 0.08696099 0.44296995 -0.086244404 -0.056488536
-0.1063503 0.036616493 -0.13106167 0.21475716 -0.06714586 -0.13473803 -0.0784601 0.119465604
-0.08258052 -0.06070521 -0.10342286 -0.110385664 -0.0732321 -0.06558453 -0.061960723 -0.133152
0.18555668 0.033995032 -0.06498397 0.14395627 -0.073030375 -0.013635805 -0.054816764 -0.1592754

encoder.4.weight f4 [64, 32, 3, 3]
00000000: 382b 5abe eef5 a0be 12cb a5bd c79f cfbe
00000010: 21c3 8fbe d0e5 d0be 5048 213d 3d0e 4ebe
00000020: 5101 8abe 0086 d93d 722e 1fbc d0fd 883c
00000030: 7125 093d 5a28 823d 4dd3 203e d322 ce3d
00000040: a843 303d 7be0 6b3e 642e 603e f0a6 973d
00000050: 03a6 a93d 6bae 283d 94af 87bc d39c 0f3e
00000060: 8691 923e 8fd4 473d a1f4 3e3e 7086 a9bd
00000070: 32fe 90bd 6e35 71be 3b5d 7dbd 67d0 adbd
00000080: c50a f7bc afd2 3cbe 18e2 33bd 315c 423a
00000090: 86ba 44bd 1b47 563e 9023 b23d e842 41be
000000a0: 4712 973c 54f0 193e 5057 23be 37a3 a6bd
000000b0: 753e 663d f899 003e f252 653d f927 dfbc
000000c0: 7ffa 6e3d 0384 713e 316d dc3c 4ead 963d
000000d0: 5ea3 3d3d e5a5 853e c6c9 7dbe 34ec b3be
000000e0: 725f dfbe d3a4 e2be 9ee2 3bbc 154e d5be
000000f0: 33b7 cbbe 6e26 abbe 0594 aebe bcf4 2fbd
00000100: cef9 05be 4bcb bb3d 91b9 1bbd 5753 1cbe
00000110: 1b28 87bd bf28 acbc d781 a7bd 3247 51be
00000120: 70bb 79bd 0f06 473d 4c84 b53b c5a0 a9bd
00000130: cce9 d3bd 3cf0 abbd 8ff8 76bd 9b24 db3c
00000140: d43e 7c3c f38d 8c3e 6af3 863d 3384 59be
00000150: b43f bb3e 4567 923d b2ae e8bb 4dc3 b03e
00000160: 6fa8 9a3e ba30 743e fbd7 90be 52ad 21be
00000170: 1bf7 00be c24b f9be 3b3c 42be eb8f b3bd
00000180: c646 92be e8db 89be 2b4e 79bd 6de7 ccbd
00000190: a38d 1cbe 9c96 4fbe 4ed7 643e 11fa 3b3c
000001a0: 1262 1b3e 1c2a 06bd 1d9e 94bb 8630 d5bc
000001b0: 03d6 0abd 5cf0 17bc 7dd7 9f3d 1560 873d
000001c0: 0596 c53d 2b8e 083e 75ee 69bd 121b 343e
000001d0: 5ba4 9bbc 5ebe 5e3d 30ce 12bf 5b5d 463b
000001e0: 858b 36be 4b5f 41bf 84bf 19bd d776 763d
000001f0: a0c5 8dbf 89a5 91bd 1636 a4bd 9cb7 5c3e
00000200: 6609 353d 7dc2 88bd 3d92 803d dff5 23be
00000210: 5b4b dabb 2111 23be e283 563d ed51 143e
00000220: 7375 36bd 78b2 283e 8c95 7f3e 7f23 0e3e
00000230: 747f 323e 9b91 253d 43f6 e43d cae6 1f37
00000240: 9383 423d de53 56bd 2670 c0bd 5ea7 e93c
00000250: 03ab af3b 23f6 82be 6799 ae3e 9f78 0dbd
00000260: 5993 293e 44a8 a23e c007 7ebe 1505 88be
00000270: 512a b6be b186 8abf 8a59 e4be a7b5 963e
00000280: 0a3c 25be bad3 eabe 657a 3dbe 69fc ccbd
00000290: d1de 2a3d 00dc 5abd 2cfa 8e3d 4773 103d
000002a0: 2344 b2bd 1109 c33d beac a6bd 125f 97be
000002b0: 75eb bbbe 2fa4 8fbd b13a 48be f5bc c93d
000002c0: e589 a0be 36aa d9be 9f89 efbd b595 9bbe
000002d0: de9b 0ebe e4fd 8dbd 1ca5 313e e405 0ebd
000002e0: f55f b0bd f563 403e c1d0 9ebd 0f4e b13b
000002f0: d9da 8a3d 14df 483b 6b48 4d3e 9c00 163c
00000300: 2170 823d e9bc 1fbd f56c 4fbd 4cd4 3cbe
00000310: 95ef 553d 4db5 b63d ae9f 02be 4cd3 503d
00000320: b838 d43d 4eea 293d 4f23 f2bc 7861 323e
00000330: 6386 a8bd ae77 81be 27b8 14be 8ff3 3abe
00000340: 23a6 86be b708 913d 5dc7 edbd 918e 5ebe
00000350: f7ea 38be 6467 f4bd dd72 37be 5ec4 63be
00000360: 6836 513d 39fe d9bc ae38 36bb be28 73bd
00000370: 4ef4 90be 1130 b13d bf3b 8f3d 41c0 75bc
00000380: 2a6f 7eba e23d 043e bbc1 e93d a7d0 683d
00000390: f81c 663e 1931 89bd aa5c 3b3e f7dd 2a3e
000003a0: e644 a7bc 5370 953a 7966 703d 7c5b d5bd
000003b0: 4b9f 8c3d 7dc8 b23d 5cbc aa3d ed3d 9e3d
000003c0: 00b9 9fbc c131 12be 5092 5d3e 828f 30bd
000003d0: 29a0 f93d ad9f e03d 9154 c3bc ae4b c7bd
000003e0: 6022 333e 061f 47bd df78 4ebd 167c c33c
000003f0: 221b 183c 5306 5dbd 3fe6 84bc 7f0f 03be
-0.21305549 -0.3143763 -0.08095373 -0.40551588 -0.2807856 -0.40800333 0.039375603 -0.20122619
-0.2695413 0.106212616 -0.009715663 0.01672259 0.033482973 0.06355353 0.15705605 0.10065236
0.043033272 0.23034851 0.21892697 0.07404888 0.08283617 0.041181963 -0.016563214 0.14024667
0.2862665 0.048786696 0.18648006 -0.08277595 -0.07079734 -0.23555538 -0.06185649 -0.08487015
-0.030156503 -0.18439744 -0.04391679 0.000741425 -0.048029445 0.20925562 0.08698189 -0.18873179
0.018441333 0.15033084 -0.15951276 -0.081365995 0.056211907 0.12558734 0.055987306 -0.02724074
0.05834436 0.23585515 0.026907535 0.07357274 0.046298377 0.2610313 -0.24784002 -0.35141146
-0.43627506 -0.44266376 -0.011467604 -0.41661134 -0.39788207 -0.33427757 -0.34097305 -0.042958006
-0.13083574 0.091696344 -0.038018767 -0.15266167 -0.065994464 -0.021015523 -0.08179062 -0.20437315
-0.06096977 0.048589762 0.0055394527 -0.082826175 -0.103473276 -0.083954304 -0.060295638 0.026750853
0.015395839 0.2745205 0.06589396 -0.21241836 0.3657204 0.07148603 -0.0071009034 0.34524003
0.3020663 0.23846713 -0.2828978 -0.15788773 -0.12594263 -0.4869061 -0.18968289 -0.087676845
-0.2856962 -0.26925588 -0.060865562 -0.100050785 -0.15288405 -0.20272297 0.22347757 0.011473195
0.1517413 -0.032755002 -0.00453545 -0.026024114 -0.033895504 -0.009273615 0.07804773 0.06610123
0.096477546 0.13335483 -0.057112176 0.17588452 -0.01899927 0.054380767 -0.5734587 0.0030268047
-0.1782666 -0.7553603 -0.03753616 0.06017193 -1.1075935 -0.071116515 -0.080181286 0.21554416
0.044198416 -0.06677721 0.06277893 -0.16011761 -0.006661815 -0.15924503 0.052371867 0.14484377
-0.044545602 0.1647433 0.24959391 0.13880728 0.17431432 0.040422063 0.11179783 9.530873e-06
0.04748876 -0.052326076 -0.093963906 0.02852219 0.0053609624 -0.25578412 0.34101412 -0.03453886
0.16560115 0.31769 -0.24807644 -0.26566377 -0.3557916 -1.0822355 -0.44599563 0.29435465
-0.16136184 -0.4586466 -0.18503721 -0.10009081 0.0417164 -0.053432465 0.0698131 0.035266187
-0.08704402 0.09523214 -0.08138417 -0.2956472 -0.36703077 -0.070137374 -0.19553639 0.09850494
-0.31355205 -0.42512673 -0.11696171 -0.30387655 -0.13926646 -0.069331914 0.1734814 -0.034673586
-0.08612052 0.1878813 -0.077546604 0.0054109166 0.06780023 0.0030650543 0.20047157 0.009155419
0.06369043 -0.03899852 -0.05064102 -0.1844036 0.052230436 0.08921299 -0.12756225 0.05098276
0.10362381 0.041483216 -0.029557852 0.17419994 -0.08228757 -0.2528662 -0.14523374 -0.18256973
-0.26298627 0.0708174 -0.11610291 -0.21734072 -0.18058382 -0.11933783 -0.1791491 -0.22242877
0.051077276 -0.02661048 -0.002780478 -0.059365027 -0.2831139 0.08651746 0.069938175 -0.01499945
-0.0009705896 0.12914231 0.11413904 0.05683961 0.22471988 -0.06698818 0.18297067 0.16686235
-0.020418596 0.0011401273 0.058691476 -0.1041784 0.0686632 0.08729646 0.08336708 0.07726655
-0.019497395 -0.14276792 0.21637845 -0.04310561 0.12188751 0.10967956 -0.023844035 -0.09731232
0.17493582 -0.04861357 -0.05040824 0.02386288 0.009283813 -0.05396111 -0.016223071 -0.1279888

encoder.4.bias f4 [64]
00000000: 4c9a 0b3f f32a 70bd b1fd 46bd 7d6f 2d3e
00000010: fbbc 983c 6a1e 523d c2a5 7f3c ca46 12bd
00000020: 8319 8e3c 6b4b 44bd 7893 843d e42b a7bc
00000030: 127b 19be 666d 463b 49fa e1bd 7087 5abe
00000040: cb27 53bd 1c7a ecbd 65f6 103a fcfd de3d
00000050: 967b 91bc 8fda 69bd 63ef 7fbd c843 7dbd
00000060: 6eac b33d c5e5 46bd e5b4 0dbd 5d43 a43c
00000070: 2ca6 53bd 47fb 79bd 6e39 81bd bf85 e83c
00000080: 2908 60bd 7fed fabd f18b 77ba c7ec 12be
00000090: bde0 84bd 3b50 e13c 3c2a 9dbd 985d cf3c
000000a0: 76da 74bd 0186 893d 9151 26be 7b8a 83bd
000000b0: 9892 103d 9bbf 14bd 9821 93bc f71a a0bc
000000c0: a153 52bb 23f8 91bc 075b 76bd dc18 293d
000000d0: 8792 6ebd ea8d 48bd 7d11 173d 8c63 b63c
000000e0: b1f4 56bc c8ce e23b 8632 73bd 767c 8fbd
000000f0: 54ff d63b b38a 923b 3b1b 7e3d f8ea d6ba
0.54532313 -0.05863471 -0.048581783 0.1693706 0.0186448 0.051298536 0.015603485 -0.03571204
0.01734615 -0.047923487 0.0647344 -0.02040667 -0.14988354 0.003027761 -0.11034066 -0.21340728
-0.05155162 -0.11546728 0.00055298797 0.108882874 -0.017759126 -0.0570932 -0.062484156 -0.06183222
0.08773123 -0.04855897 -0.034596343 0.020051653 -0.051672146 -0.061030652 -0.06309782 0.028384088
-0.054695282 -0.1225233 -0.0009443155 -0.14348136 -0.06488178 0.027504077 -0.07674071 0.025313184
-0.059778653 0.06715012 -0.16242053 -0.064228974 0.035296053 -0.03631554 -0.017960355 -0.019544108
-0.0032093304 -0.017818516 -0.060145404 0.041283473 -0.058245208 -0.048963465 0.036881912 0.022264265
-0.013119862 0.006921623 -0.059374355 -0.07006161 0.006561199 0.0044721006 0.062037688 -0.001639693

decoder.0.weight f4 [64, 32, 3, 3]
00000000: 4744 45be c078 76be aae9 a3bd 3e0d a6be
00000010: 4486 06bf 3c66 a0bd 9c78 fdbd 25cb 5ebe
00000020: 5ee0 d13d b928 e63d 9730 80bd e693 a2bd
00000030: afb9 9d3d 6a20 bfbe d42a d63c e043 aa3d
00000040: 0031 c93d e89d a63d 65bf 243e e7d9 363e
00000050: 2b67 c5bd f34b ca3e b874 853e 6e56 d03d
00000060: 1348 60bd 3242 103f 5aa0 a5bc 58a8 bd3c
00000070: 9352 a83d 2eb4 9d3d 9a53 04be 1580 cb3d
00000080: 0006 3ebf ff5b f53d 3847 723c 1449 6dbd
00000090: c03f d03d 7a62 cb3e bb45 08bd 689c d63e
000000a0: 5dcc 173e 6405 163b da43 a93e 2f35 7d3e
000000b0: cb53 f7bc ec38 3abe b6d5 0fbe d801 ed3d
000000c0: 8cad bebe 7519 d7be 6186 133e de3f b03d
000000d0: c1ad b8be ea88 263e 6242 0e3e 95d9 84be
000000e0: e1d5 323b fc3e 0a3e dfe5 00be 1494 833e
000000f0: b0ae b73c face 0dbe 321d 0f3e d205 7abe
00000100: 18b3 f5bd f6eb 9b3e 42a2 0ebe 1fca f83d
00000110: 7dfb 4f3e bb49 e23c b030 68bd b5d5 74bd
00000120: 4e17 113e 12b5 1f3d 966e 933d 1c5a 753c
00000130: adcf 4c3c cb35 57be 6ab6 b53e 21de bc3d
00000140: 7b49 2e3e 9b45 2e3d 1fc0 213d e606 983e
00000150: 977c 863d e09f c2bd 72ee 1a3e 96d4 b73d
00000160: 594f 013e 35d1 cc3d 93f6 433e f930 563e
00000170: d773 ad3e d7ec a73e 71c8 c13e 4868 583e
00000180: df0e ab3e b015 273c d3f2 253e 4e89 72bd
00000190: 31ac a8bd cfb5 913d 68c0 d9bc 15af 7b3e
000001a0: d71b 9a3d 9041 9f3d 5eca b4bd d845 303b
000001b0: b579 a9bd 8487 a13d 9c38 5cbe ea9a 063e
000001c0: ac07 35be 591a 1cbe a090 acbd 70b6 2fbe
000001d0: 8e5b f8bd 6e23 d3bd 32b8 90bd b178 5c3d
000001e0: 9ab1 38bd 474a a23c e289 95be a9de 423d
000001f0: da62 19bd ff3d 5a3e e474 fe3c 016c be3e
00000200: 0ee6 d43d ea5f 2d3e e597 31be 60c1 333e
00000210: 7b81 f23b ad2e 96bd 8f52 36bd 7840 0a3d
00000220: 1c6e 283d 3dfe 6c3d 713f 4f3e 1311 8bbd
00000230: 6afa aabd 79a2 94bc e066 02be f6e8 f5bb
00000240: c085 5dbb 110b 10bd f205 983d 9c26 f13e
00000250: 0f87 443c 16ae d43c 0a16 b4bb d1ce e43c
00000260: 9912 8ebd 4474 aa3d 8df0 7f3d 7f6c 143e
00000270: 252f 413e 33b5 edbc 8dd4 253c e893 0d3e
00000280: 77fe 0fbe 8cf4 793d 88c1 073e f2cb a5be
00000290: b12e 94bd c3ed 9a3d b0ab 6ebe d9aa 093c
000002a0: 08f5 8ebd f5f8 61be df6f 203e 133b cabd
000002b0: d40c 3f3e 6cf3 f93d 049a 563e 8f01 e93d
000002c0: f3ed 063e 5072 cdbb 636c e63d f96b 84be
000002d0: f982 113e a8fe 433e 3e27 e33d 7161 6bbd
000002e0: 6418 753d cf16 b6bc c9c1 dabc 7a91 c13d
000002f0: ebef 80bd dfd9 4dbd 6947 8ebc a1fd 46be
00000300: 7f5d cd3e ab22 34be 9232 013f 6f11 373d
00000310: e73c efbd 3ceb 53be 84e8 4b3d 9cfc 56bd
00000320: 1932 0fbb 9cb0 e5bd a080 e6bd d341 7c3d
00000330: d64e b13d 05e0 333e 0e6c b83c 96ca 57be
00000340: 65e1 813e 8d5b 5b3d 75db 55be e9af cfbe
00000350: 1f46 0a3e 2033 88be 0e67 073e 154d 23be
00000360: 5d34 0bbe 57b7 2d3d a435 a5be 8e8c d93d
00000370: 3fe2 fb3d 990b d33d 3037 7fbe 924a 233d
00000380: b75e 7fbe b21a f93d e53c 26be a17c 353e
00000390: 024e a2bd 77fc 123e 1013 7bbe ab84 5abd
000003a0: 6ba3 49bd 4c37 e23d b205 b53d 3a60 b23c
000003b0: feeb dc3e 337d 073e 9aef 573e 24f7 873d
000003c0: 1095 393f e06b 053e a9a3 f43e 9fbc 9cbc
000003d0: 80d5 b93e 5962 fd3d 96b7 2e3e be68 bd3d
000003e0: 99dd b9be bc18 6e3e df54 fc3d 88ff 07be
000003f0: 4b06 f13d 7a0e 803d 2b82 203d bc4c 9c3d
-0.19264327 -0.240695 -0.08003552 -0.32431978 -0.52548623 -0.07832 -0.1237652 -0.21757181
0.10247873 0.11238236 -0.06259268 -0.07938366 0.07701432 -0.37329417 0.026143469 0.083137274
0.09823799 0.08135587 0.16088636 0.1785656 -0.09638818 0.3951107 0.26065612 0.10172735
-0.054756235 0.56351006 -0.020218063 0.023151562 0.08218875 0.07700382 -0.12922516 0.09936539
-0.74227905 0.119804375 0.014787488 -0.05793102 0.10168409 0.3972357 -0.033269625 0.41916203
0.14824052 0.0022891397 0.3305958 0.24727319 -0.030191323 -0.18185776 -0.14046368 0.11572617
-0.3724178 -0.4201161 0.1440673 0.08605932 -0.36070064 0.16263166 0.1389251 -0.25947252
0.0027288126 0.13500589 -0.12587689 0.25698912 0.022422165 -0.13848487 0.13975981 -0.24416283
-0.1199705 0.3045346 -0.13929084 0.121479265 0.20310779 0.027623048 -0.056687057 -0.05977412
0.14169046 0.03899104 0.07198827 0.014975097 0.012500686 -0.21016614 0.35490733 0.09222055
0.17020218 0.04254685 0.03948986 0.29692763 0.065667324 -0.0950315 0.15130022 0.089760944
0.12627925 0.100008406 0.1913703 0.20917119 0.3387744 0.32797882 0.37848237 0.2113353
0.33409783 0.010198042 0.16205911 -0.059212975 -0.08235968 0.07114755 -0.026581004 0.24578507
0.07524841 0.07776177 -0.08827661 0.00268971 -0.08275167 0.07887176 -0.2150597 0.13145033
-0.17678708 -0.15244426 -0.084260225 -0.17159438 -0.12126838 -0.10309492 -0.070663825 0.053826038
-0.04509125 0.019810809 -0.2920676 0.047575627 -0.037447788 0.21312712 0.031061597 0.37191775
0.10395442 0.1693112 -0.173431 0.17554235 0.007400689 -0.073331214 -0.044512328 0.03375289
0.041120633 0.057859648 0.20239045 -0.06790366 -0.08348544 -0.01814388 -0.12734556 -0.0075045777
-0.0033801645 -0.035166804 0.07423009 0.4709977 0.011995091 0.025961917 -0.0054957913 0.027930649
-0.06937141 0.08322957 0.062485266 0.14494513 0.1886564 -0.029017067 0.010121477 0.13825953
-0.14061914 0.061024234 0.1325742 -0.3238216 -0.07235468 0.07564881 -0.23307681 0.00840255
-0.0698033 -0.22067626 0.15667675 -0.09874549 0.18657237 0.12204632 0.2095719 0.113772504
0.13176708 -0.0062697306 0.11251142 -0.25863627 0.14210118 0.19140112 0.11091469 -0.057465974
0.059837714 -0.022227673 -0.026703732 0.094515756 -0.06295761 -0.050256606 -0.017368035 -0.19432689
0.40110394 -0.1759135 0.5046779 0.04469436 -0.11681538 -0.20695204 0.04978229 -0.052487
-0.002184993 -0.11215326 -0.11255002 0.061586212 0.08657615 0.17565925 0.022512462 -0.21073374
0.25367275 0.053554107 -0.20884497 -0.40563896 0.13503312 -0.26601505 0.13222906 -0.15947373
-0.13594194 0.042411175 -0.32267487 0.10622512 0.122990124 0.103049465 -0.24923396 0.039866038
-0.24938475 0.12163295 -0.16234167 0.17723323 -0.07925035 0.1435412 -0.2451899 -0.05334918
-0.049228113 0.11045703 0.08838977 0.0217744 0.43148798 0.13231353 0.21087494 0.06638935
0.72493076 0.13029432 0.47781113 -0.01913291 0.362957 0.12372274 0.1706222 0.092484936
-0.36301878 0.23251623 0.123208754 -0.13281071 0.117687784 0.06252761 0.039186638 0.076318234

decoder.0.bias f4 [32]
00000000: 833e e4bd 6746 443d 1c75 58bd df5f c2bd
00000010: 22c8 b8bd bf54 bfbd 8fac 8dbc ff3f 03bd
00000020: b615 1fbd 72a0 9b3c 19fe 90bd 1ea9 913c
00000030: 2e47 bd3d 3341 90bd fc6e 23bd e07c e8bc
00000040: d515 a83c cd1b 56bd e498 3d3d 50c4 80bd
00000050: 4308 06bd 39cc 693d 18f8 3f3d 67e1 98bd
00000060: 78e2 63bd 1202 dc3d 9de8 85bd 7d69 82bd
00000070: e8aa 6c3d 70ab c03d 9305 3dbd adee 7dbd
-0.11144736 0.047918703 -0.05284606 -0.09490942 -0.09022547 -0.09342336 -0.017294196 -0.032043453
-0.038839065 0.018997405 -0.07079715 0.017780837 0.09242092 -0.07043686 -0.039900765 -0.028379858
0.020518223 -0.052272607 0.046288386 -0.06287444 -0.032722723 0.057079528 0.04686746 -0.07464867
-0.0556359 0.107425824 -0.06538508 -0.063677765 0.057780176 0.09407699 -0.046147894 -0.061995197

decoder.2.weight f4 [32, 16, 3, 3]
00000000: 4668 543e 25e5 8f3e eeed a23d 33c8 6e3e
00000010: 1305 63bd d7ee c53c fb66 5abc 62c0 aebb
00000020: d7a9 76be d18f 85bd 9885 4cbe 68b3 c5bd
00000030: 256f e93e 35a8 f23e c8e6 953e 9742 74bd
00000040: 0dc3 603e 0973 6dbd 9670 7cba ca09 9ebc
00000050: 9381 2fbe 7c97 abbe dfe8 c8be 5236 37bf
00000060: a2db 0e3e 6a5a 31be 2405 31be 68fe 0dbc
00000070: e38b 12be b745 383e e243 a2bd ee8c 1ebe
00000080: 9438 e4bd 15d8 6bbc 503f 2e3e 983a 9a3d
00000090: b94c f0bd 1975 633d cd5f b3bd 0433 a03b
000000a0: 5cf0 12be d9e0 9bbd e446 363c 08e3 353d
000000b0: 7970 863d 8ffd 03be 3324 aa3b 09f7 d6be
000000c0: 17e3 b5be cd19 89be 7f33 89be 3b5d 6d3d
000000d0: d2c9 a23d 1622 0ebe dc22 7e3c 51a5 c83e
000000e0: ed70 9a3e c9d9 043e c68a 2c3f 2349 0a3f
000000f0: fdcd e7bd c1ec 4c3e 5ea3 953c 0b6d 94be
00000100: a653 153d e548 b8be 29da b5bd 0f0e 903e
00000110: 1e03 f3bd 86d3 4c3d 585f 7abd dc60 1a3e
00000120: d708 c2be e643 243e 406c 7fbe 8653 9c3c
00000130: df30 51be abd0 beba d81c 85be 7b14 c63b
00000140: 192c 05be 316d 57be 6d53 ef3c 6f06 63be
00000150: 9180 b53c 1cc4 913d 35d6 0cbe 7075 5fbe
00000160: bfe7 f33d 101d 37be 42aa e6bd 4ae2 2cbd
00000170: 8f7e b7bb 42d2 453d e6d5 c73d 303b 62bc
00000180: e43d 12be 9b11 163e e91f 8fbd 7b60 4dbc
00000190: 7047 88be 6602 c0bd 715e bcbd f107 1abe
000001a0: 3e27 8fbe 2d4f 05bd 6116 713c 68f8 093e
000001b0: c75e b5bd 55c3 0e3d fee6 c5bc e658 06bd
000001c0: b4c8 7bbd 8697 00bd 99f9 c43d 925d 063e
000001d0: e43f fc3c 2c20 2ebc 4022 91bd 6a5e 523c
000001e0: 2bee 093d dc4e b7bc fc49 9f3c 37d0 2e3d
000001f0: 6dfe 6b3d c475 093c 547c 453d 1c42 70be
00000200: 8b22 5dbe aed3 30bd bc91 8b3e 7035 fc3b
00000210: aec8 cebc 6df5 213c 0ead 603d 96ca ee3b
00000220: 1388 97bd a42b 793d 55ac 5d3e a04b b63e
00000230: 0c92 5c3c 64f2 0fbd 2777 a038 d85f c5bd
00000240: de07 c4be ebfc 62bd a5dc 033e 6179 0abe
00000250: 4cdf 70be 0e39 e83d 66b6 3dbe bb33 90bd
00000260: a2ab f83d 272c c9be eaa4 f1bc 9e79 f63d
00000270: 1c60 0dbb 690b 1f3d 7509 f0bc f57f 1b3e
00000280: f4c6 74be e4ed a13d dc6d 31be 9867 febd
00000290: 3cab 00bd 520c 0fbe 496f 06be 7330 3dbe
000002a0: 5a84 50be 64cb 29be 0596 ecbd f80b 8f3d
000002b0: 0d02 c53d b5d0 39bd 7323 c03d 0abd 79bd
000002c0: 4386 ff3a a8c5 29bc d5a5 90bd 1069 30bd
000002d0: b773 783e 1b47 0f3e f27a a43d ce34 ab3d
000002e0: ea29 853d 2d9e ba3b 71bb d13d 2adf 3f3e
000002f0: a022 f53c 5a98 4cbe fbd8 b53d 2061 6fbd
00000300: 1cfc 1abe 7042 43be 05b3 ccbc 37d9 bdbc
00000310: c311 b4bc 075a 8fbd 9daf 87be 3433 51be
00000320: 8e1f 393e 597a 6bbe 346d 5bbf 8181 eebd
00000330: a400 0fbe 5e1f afbc 56a8 8cbe 3965 7bbe
00000340: decf acbd ab9f 503c 12e2 003e 0179 cb3d
00000350: 1ede 0e3b 68e7 41bd 9e02 73be f216 8bbe
00000360: e873 97bd d61e 423d 8d37 d1bd 7e60 e4bd
00000370: 988d d6bd 39c3 973d f84f 993e 7cc0 343d
00000380: 5e98 62be dccd 8b3e 7552 c33b 8aa8 353e
00000390: 35b3 213c 0a8d 67be 7f36 b7bd 5a0d 993d
000003a0: 9053 0ebc d772 b7bc 747d 8a3d 01fa e2bc
000003b0: dc63 163e dab3 1c3d 5006 de3b 7052 303e
000003c0: 8a6a 03bd 0f4d 503d 5a61 033d da23 dcbd
000003d0: 4da9 313e 3d19 34be d183 3a3e 6272 263e
000003e0: 3ac6 193e d870 2b3e 54d4 873e 4490 003d
000003f0: e3b8 aeba eb3e 3ebd 3fb6 35bd 95b6 633e
0.20742902 0.2810451 0.07955538 0.23318557 -0.05542476 0.02416174 -0.0133302165 -0.0053329924
-0.24088226 -0.065215714 -0.19972837 -0.0965336 0.4559261 0.47393957 0.29277635 -0.059633818
0.21949406 -0.057971034 -0.0009629814 -0.019291777 -0.17139272 -0.3351401 -0.39240167 -0.7156726
0.13950971 -0.17319646 -0.17287117 -0.008666612 -0.14311175 0.17995344 -0.07923104 -0.15483448
-0.11143604 -0.01439478 0.1701634 0.07530707 -0.11733384 0.055531595 -0.08758507 0.004888894
-0.14349502 -0.07611246 0.0111253 0.044405967 0.06564421 -0.12889694 0.0051923036 -0.41985348
-0.35524818 -0.26777497 -0.267971 0.05795024 0.079486504 -0.1388019 0.015511241 0.39188626
0.3016428 0.12973703 0.6739925 0.5401785 -0.11318586 0.2001219 0.018266376 -0.28989443
0.036456726 -0.35993114 -0.088795014 0.28135726 -0.11865829 0.050006412 -0.061126083 0.15076011
-0.3789737 0.16041526 -0.24943638 0.019082796 -0.20428799 -0.0014558038 -0.2599857 0.006044922
-0.13005103 -0.21037747 0.029214585 -0.22170423 0.022156032 0.07117483 -0.13753588 -0.21822143
0.119094364 -0.1788218 -0.11262943 -0.042207994 -0.0055998038 0.04829622 0.09757595 -0.013808057
-0.14281422 0.14655153 -0.06988508 -0.01253521 -0.26617002 -0.093754575 -0.09197701 -0.15042092
-0.27959627 -0.03254621 0.014714808 0.13473666 -0.08855968 0.034854252 -0.024157997 -0.032799624
-0.061470702 -0.031394504 0.096179195 0.13121632 0.030792184 -0.010627788 -0.07086611 0.012839893
0.0336744 -0.02237647 0.019444458 0.042679038 0.057615686 0.008389894 0.04821427 -0.23462719
-0.21595208 -0.043170623 0.27259624 0.0076968 -0.025242176 0.009885174 0.054852538 0.0072873337
-0.07399001 0.060832635 0.2164777 0.35604572 0.013462555 -0.03514327 7.6515884e-05 -0.09637421
-0.38287252 -0.055416983 0.12877138 -0.13522865 -0.23522681 0.11339007 -0.1852661 -0.07041117
0.12142111 -0.39291498 -0.029497582 0.120349154 -0.0021572178 0.03882924 -0.029301384 0.1518553
-0.2390402 0.07906702 -0.17327064 -0.12422103 -0.0314133 -0.13969544 -0.1312839 -0.18475513
-0.20362988 -0.16581494 -0.115520515 0.06984705 0.09619532 -0.045365054 0.093817614 -0.060971297
0.0019494969 -0.010362066 -0.0706288 -0.043068945 0.24262892 0.13991968 0.080312625 0.08359681
0.06502135 0.0056951256 0.1024083 0.18737474 0.029923737 -0.19979993 0.08879276 -0.058442235
-0.15135235 -0.19068313 -0.024987707 -0.023174865 -0.021981126 -0.06999593 -0.2650117 -0.20429689
0.18078443 -0.2299589 -0.85713506 -0.11645795 -0.13965088 -0.021377262 -0.2747218 -0.24550332
-0.08438085 0.01273338 0.12586239 0.09935189 0.0021799873 -0.047339827 -0.23731467 -0.27165943
-0.07395154 0.04739269 -0.102156736 -0.11151217 -0.104762256 0.07410283 0.29943824 0.04412888
-0.22128436 0.27305496 0.0059607574 0.17740074 0.009869386 -0.22612396 -0.08945941 0.0747325
-0.008686915 -0.022393627 0.067622095 -0.027707102 0.14686531 0.038257457 0.006775655 0.17218947
-0.032084025 0.05085474 0.032075264 -0.10749026 0.1734974 -0.17587753 0.18214346 0.16254571
0.15017024 0.16742265 0.2652918 0.031387582 -0.0013330247 -0.046446722 -0.044363257 0.22237618

decoder.2.bias f4 [16]
00000000: bf1a e6bd 12e7 36be d141 f9bd f02f 1c3d
00000010: 5941 b93d 2aaf 76bc 50f6 0fbe 3f6c a9bd
00000020: faed 163d 39ca 9fbd 8c08 2e3c cccc 153d
00000030: 94cd 263d 12a6 853d eeed f9bd e5d5 a5bd
-0.1123557 -0.17861584 -0.121707566 0.038131654 0.09045667 -0.015056411 -0.14058805 -0.082725994
0.036848046 -0.07802243 0.010622155 0.036572263 0.0407234 0.06525816 -0.122035846 -0.08097438

decoder.4.weight f4 [16, 1, 3, 3]
00000000: 6bcb fc3d 85a3 42be 9417 0ebf 45c5 31bd
00000010: 9de1 11bf c49c 4dbf 9bca 33be 9835 fbbe
00000020: 2e92 06bf fa29 29be 011c 49bf 9363 4cbf
00000030: ce06 3a3d 473a 7d3d 9497 a9bc 3c6a 9f3e
00000040: 2533 ce3e 696b b43e 1986 7abe 4036 c33e
00000050: 8695 7cbd 38f7 073f 07a1 82bd 7fa4 463e
00000060: d44f 08be 293b 51be 5f99 f93d e3e8 06be
00000070: 99ba 5f3f 8ac6 983e a965 d23e 966c c03e
00000080: 66a3 1d3f 8a45 803e c18d 5fbe edc8 6ebc
00000090: 52d6 1b3f 9287 4e3e c590 25bf 59e8 b23e
000000a0: 7b0d 1c3f 47b6 d53c 5182 ccbc 3086 313e
000000b0: 6b24 2d3f 4546 103f 32c7 c0be 80ec b7be
000000c0: 75dc 123f ba1c d03e 30e3 f6bd 13ab fd3c
000000d0: 0fe2 513e c4c9 17be 9d1f aabe 97fd e8be
000000e0: 4729 bf3d 3d81 24bf e05f 7dbf 85bf 95be
000000f0: 506c 6bbe 91a4 05bf 81ae 91bd 4352 92bd
00000100: aa56 393e a2e6 96be aeb4 a6bd 83a3 17be
00000110: 877b 3ebf aca3 d13e 08b2 cf3e 784c 083f
00000120: a8c1 0fbc eb76 bb3e f35d 193e 0ed0 113f
00000130: e6b9 c63e f6c1 d33e 79b1 bf39 1261 02bf
00000140: 6079 2e3f 6e23 753e 7bc4 41bd 9de8 583e
00000150: 140e 38be ba39 f03d 3f94 17bf 7f26 9b3d
00000160: 0a65 7e3f b3f7 2cbf e497 833f 1f8b 25bf
00000170: 34b9 8dbe e898 9a3e c47a 183f 0bb4 dd3e
00000180: d3c6 ddbe c1e9 51be f0a7 0f3f a392 b13e
00000190: b65e 93be cc98 8f3d 301d f93a 3d8c 393f
000001a0: b8d5 d73e bb6f 37be ca39 2e3f b607 03be
000001b0: 42f2 22bf 9624 983e 9c8f 9d3f 4312 da3e
000001c0: 4576 ec3e 167f 603d 2496 a83e 2b1b a83e
000001d0: 09f3 143e 3763 debe 0db7 123f f6db cebe
000001e0: 0565 133e ff4a ea3e 45b9 af3e fd12 783f
000001f0: 66bb 853f 1dea a4be 57f3 dd3e 2b94 9abe
00000200: 3c20 b3be 6a44 14bd 7b86 53be 8659 40bf
00000210: 9499 0fbf f85a e03e 4759 d1be 04c5 5e3d
00000220: a349 0bbe 4f54 46bf 25c8 2dbc 38a4 44bf
00000230: b0c2 dc3d 6cd9 cbbd c703 5ebe 440c 1abf
0.123434864 -0.1900769 -0.5550473 -0.04340102 -0.56984884 -0.8031733 -0.17557757 -0.49064326
-0.525668 -0.16519919 -0.78558356 -0.7983944 0.045416646 0.061823156 -0.02070216 0.31135738
0.40273395 0.35238197 -0.24465217 0.38127327 -0.061666034 0.531116 -0.0637837 0.19398688
-0.13311702 -0.20432724 0.12187456 -0.13174777 0.873941 0.29838973 0.41093186 0.37582844
0.6157745 0.25053054 -0.21831419 -0.014574272 0.608739 0.20168903 -0.64674026 0.34942892
0.6095807 0.026087893 -0.024964483 0.17336345 0.67633694 0.5635722 -0.37651974 -0.35922623
0.5736764 0.40646917 -0.12055051 0.030965364 0.20496391 -0.14823061 -0.33227244 -0.45505974
0.09334045 -0.642597 -0.9897442 -0.2924768 -0.22990537 -0.52204233 -0.07113362 -0.071445964
0.18099466 -0.29472834 -0.08139931 -0.14808469 -0.7440724 0.40945184 0.40565515 0.5324168
-0.008774199 0.36614165 0.14977245 0.5695809 0.38813704 0.41358918 0.00036562586 -0.5092937
0.68153954 0.23939297 -0.04730652 0.21182485 -0.1797412 0.117297605 -0.5921058 0.07575702
0.99372923 -0.6756546 1.0280728 -0.64665407 -0.2768036 0.30194783 0.59562325 0.43301424
-0.43315753 -0.20499326 0.5611563 0.34682187 -0.28783196 0.070115656 0.0019005891 0.7247961
0.42155242 -0.17913716 0.6805693 -0.1279591 -0.63650906 0.29715413 1.2309451 0.42592058
0.46183982 0.0548087 0.32927048 0.32833228 0.14545836 -0.4343507 0.57310563 -0.40402192
0.14394005 0.45760342 0.34321037 0.96903974 1.0447814 -0.32209864 0.43349716 -0.30191168
-0.3498553 -0.036198057 -0.20656769 -0.751366 -0.56093717 0.43819404 -0.40888426 0.054387107
-0.13602309 -0.77472395 -0.0106068 -0.7681308 0.10779321 -0.09953579 -0.21681128 -0.60174966
